…
rt_table(Report,Results,name,tipo_de_RNN,n_partidos,len(F_h),len(N_Features)) . Train shape: (83399, 1, 3) Test shape: (10292, 1, 3) Train shape: (83399, 1, 3) Test shape: (10292, 1, 3) Train shape: (83399, 2) Test shape: (10292, 2) Model: &#34;Modelo_IFA&#34; __________________________________________________________________________________________________ Layer (type) Output Shape Param # Connected to ================================================================================================== input_1 (InputLayer) [(None, 1, 3)] 0 [] input_2 (InputLayer) [(None, 1, 3)] 0 [] lstm (LSTM) (None, 1, 100) 41200 [&#39;input_1[0][0]&#39;] lstm_1 (LSTM) (None, 1, 100) 41200 [&#39;input_2[0][0]&#39;] reshape (Reshape) (None, 100) 0 [&#39;lstm[0][0]&#39;] reshape_1 (Reshape) (None, 100) 0 [&#39;lstm_1[0][0]&#39;] input_3 (InputLayer) [(None, 2)] 0 [] concatenate (Concatenate) (None, 202) 0 [&#39;reshape[0][0]&#39;, &#39;reshape_1[0][0]&#39;, &#39;input_3[0][0]&#39;] dense (Dense) (None, 500) 101500 [&#39;concatenate[0][0]&#39;] dropout (Dropout) (None, 500) 0 [&#39;dense[0][0]&#39;] dense_1 (Dense) (None, 200) 100200 [&#39;dropout[0][0]&#39;] dropout_1 (Dropout) (None, 200) 0 [&#39;dense_1[0][0]&#39;] dense_2 (Dense) (None, 80) 16080 [&#39;dropout_1[0][0]&#39;] dropout_2 (Dropout) (None, 80) 0 [&#39;dense_2[0][0]&#39;] dense_3 (Dense) (None, 20) 1620 [&#39;dropout_2[0][0]&#39;] dropout_3 (Dropout) (None, 20) 0 [&#39;dense_3[0][0]&#39;] dense_4 (Dense) (None, 10) 210 [&#39;dropout_3[0][0]&#39;] dense_5 (Dense) (None, 3) 33 [&#39;dense_4[0][0]&#39;] ================================================================================================== Total params: 302,043 Trainable params: 302,043 Non-trainable params: 0 __________________________________________________________________________________________________ Epoch 1/50 188/188 [==============================] - 7s 31ms/step - loss: 1.0920 - accuracy: 0.3736 - 
…
6 | 0.394498 | 0.569866 | 0.570228 | 0.354709 | 0.356641 | 1 | LSTM | 2 | 3 | . Train shape: (83399, 2, 3) Test shape: (10292, 2, 3) Train shape: (83399, 2, 3) Test shape: (10292, 2, 3) Train shape: (83399, 2) Test shape: (10292, 2) Model: &#34;Modelo_IFA&#34; __________________________________________________________________________________________________ Layer (type) Output Shape Param # Connected to ================================================================================================== input_1 (InputLayer) [(None, 2, 3)] 0 [] input_2 (InputLayer) [(None, 2, 3)] 0 [] lstm (LSTM) (None, 2, 100) 41200 [&#39;input_1[0][0]&#39;] lstm_1 (LSTM) (None, 2, 100) 41200 [&#39;input_2[0][0]&#39;] reshape (Reshape) (None, 200) 0 [&#39;lstm[0][0]&#39;] reshape_1 (Reshape) (None, 200) 0 [&#39;lstm_1[0][0]&#39;] input_3 (InputLayer) [(None, 2)] 0 [] concatenate (Concatenate) (None, 402) 0 [&#39;reshape[0][0]&#39;, &#39;reshape_1[0][0]&#39;, &#39;input_3[0][0]&#39;] dense (Dense) (None, 500) 201500 [&#39;concatenate[0][0]&#39;] dropout (Dropout) (None, 500) 0 [&#39;dense[0][0]&#39;] dense_1 (Dense) (None, 200) 100200 [&#39;dropout[0][0]&#39;] dropout_1 (Dropout) (None, 200) 0 [&#39;dense_1[0][0]&#39;] dense_2 (Dense) (None, 80) 16080 [&#39;dropout_1[0][0]&#39;] dropout_2 (Dropout) (None, 80) 0 [&#39;dense_2[0][0]&#39;] dense_3 (Dense) (None, 20) 1620 [&#39;dropout_2[0][0]&#39;] dropout_3 (Dropout) (None, 20) 0 [&#39;dense_3[0][0]&#39;] dense_4 (Dense) (None, 10) 210 [&#39;dropout_3[0][0]&#39;] dense_5 (Dense) (None, 3) 33 [&#39;dense_4[0][0]&#39;] ================================================================================================== Total params: 402,043 Trainable params: 402,043 Non-trainable params: 0 __________________________________________________________________________________________________ Epoch 1/50 188/188 [==============================] - 11s 46ms/step - loss: 1.0898 - accuracy: 0.3776 -
…
5 | 0.404161 | 0.582815 | 0.582820 | 0.366837 | 0.368093 | 2 | LSTM | 2 | 3 | . Train shape: (83399, 3, 3) Test shape: (10292, 3, 3) Train shape: (83399, 3, 3) Test shape: (10292, 3, 3) Train shape: (83399, 2) Test shape: (10292, 2) Model: &#34;Modelo_IFA&#34; __________________________________________________________________________________________________ Layer (type) Output Shape Param # Connected to ================================================================================================== input_1 (InputLayer) [(None, 3, 3)] 0 [] input_2 (InputLayer) [(None, 3, 3)] 0 [] lstm (LSTM) (None, 3, 100) 41200 [&#39;input_1[0][0]&#39;] lstm_1 (LSTM) (None, 3, 100) 41200 [&#39;input_2[0][0]&#39;] reshape (Reshape) (None, 300) 0 [&#39;lstm[0][0]&#39;] reshape_1 (Reshape) (None, 300) 0 [&#39;lstm_1[0][0]&#39;] input_3 (InputLayer) [(None, 2)] 0 [] concatenate (Concatenate) (None, 602) 0 [&#39;reshape[0][0]&#39;, &#39;reshape_1[0][0]&#39;, &#39;input_3[0][0]&#39;] dense (Dense) (None, 500) 301500 [&#39;concatenate[0][0]&#39;] dropout (Dropout) (None, 500) 0 [&#39;dense[0][0]&#39;] dense_1 (Dense) (None, 200) 100200 [&#39;dropout[0][0]&#39;] dropout_1 (Dropout) (None, 200) 0 [&#39;dense_1[0][0]&#39;] dense_2 (Dense) (None, 80) 16080 [&#39;dropout_1[0][0]&#39;] dropout_2 (Dropout) (None, 80) 0 [&#39;dense_2[0][0]&#39;] dense_3 (Dense) (None, 20) 1620 [&#39;dropout_2[0][0]&#39;] dropout_3 (Dropout) (None, 20) 0 [&#39;dense_3[0][0]&#39;] dense_4 (Dense) (None, 10) 210 [&#39;dropout_3[0][0]&#39;] dense_5 (Dense) (None, 3) 33 [&#39;dense_4[0][0]&#39;] ================================================================================================== Total params: 502,043 Trainable params: 502,043 Non-trainable params: 0 __________________________________________________________________________________________________ Epoch 1/50 188/188 [==============================] - 14s 60ms/step - loss: 1.0878 - accuracy: 0.3762 -
…
0 | 0.411257 | 0.591682 | 0.592314 | 0.384350 | 0.385402 | 3 | LSTM | 2 | 3 | . Train shape: (83399, 4, 3) Test shape: (10292, 4, 3) Train shape: (83399, 4, 3) Test shape: (10292, 4, 3) Train shape: (83399, 2) Test shape: (10292, 2) Model: &#34;Modelo_IFA&#34; __________________________________________________________________________________________________ Layer (type) Output Shape Param # Connected to ================================================================================================== input_1 (InputLayer) [(None, 4, 3)] 0 [] input_2 (InputLayer) [(None, 4, 3)] 0 [] lstm (LSTM) (None, 4, 100) 41200 [&#39;input_1[0][0]&#39;] lstm_1 (LSTM) (None, 4, 100) 41200 [&#39;input_2[0][0]&#39;] reshape (Reshape) (None, 400) 0 [&#39;lstm[0][0]&#39;] reshape_1 (Reshape) (None, 400) 0 [&#39;lstm_1[0][0]&#39;] input_3 (InputLayer) [(None, 2)] 0 [] concatenate (Concatenate) (None, 802) 0 [&#39;reshape[0][0]&#39;, &#39;reshape_1[0][0]&#39;, &#39;input_3[0][0]&#39;] dense (Dense) (None, 500) 401500 [&#39;concatenate[0][0]&#39;] dropout (Dropout) (None, 500) 0 [&#39;dense[0][0]&#39;] dense_1 (Dense) (None, 200) 100200 [&#39;dropout[0][0]&#39;] dropout_1 (Dropout) (None, 200) 0 [&#39;dense_1[0][0]&#39;] dense_2 (Dense) (None, 80) 16080 [&#39;dropout_1[0][0]&#39;] dropout_2 (Dropout) (None, 80) 0 [&#39;dense_2[0][0]&#39;] dense_3 (Dense) (None, 20) 1620 [&#39;dropout_2[0][0]&#39;] dropout_3 (Dropout) (None, 20) 0 [&#39;dense_3[0][0]&#39;] dense_4 (Dense) (None, 10) 210 [&#39;dropout_3[0][0]&#39;] dense_5 (Dense) (None, 3) 33 [&#39;dense_4[0][0]&#39;] ================================================================================================== Total params: 602,043 Trainable params: 602,043 Non-trainable params: 0 __________________________________________________________________________________________________ Epoch 1/50 188/188 [==============================] - 17s 74ms/step - loss: 1.0813 - accuracy: 0.4002 -
…
7 | 0.420617 | 0.602573 | 0.602214 | 0.407251 | 0.407376 | 4 | LSTM | 2 | 3 | . Train shape: (83399, 5, 3) Test shape: (10292, 5, 3) Train shape: (83399, 5, 3) Test shape: (10292, 5, 3) Train shape: (83399, 2) Test shape: (10292, 2) Model: &#34;Modelo_IFA&#34; __________________________________________________________________________________________________ Layer (type) Output Shape Param # Connected to ================================================================================================== input_1 (InputLayer) [(None, 5, 3)] 0 [] input_2 (InputLayer) [(None, 5, 3)] 0 [] lstm (LSTM) (None, 5, 100) 41200 [&#39;input_1[0][0]&#39;] lstm_1 (LSTM) (None, 5, 100) 41200 [&#39;input_2[0][0]&#39;] reshape (Reshape) (None, 500) 0 [&#39;lstm[0][0]&#39;] reshape_1 (Reshape) (None, 500) 0 [&#39;lstm_1[0][0]&#39;] input_3 (InputLayer) [(None, 2)] 0 [] concatenate (Concatenate) (None, 1002) 0 [&#39;reshape[0][0]&#39;, &#39;reshape_1[0][0]&#39;, &#39;input_3[0][0]&#39;] dense (Dense) (None, 500) 501500 [&#39;concatenate[0][0]&#39;] dropout (Dropout) (None, 500) 0 [&#39;dense[0][0]&#39;] dense_1 (Dense) (None, 200) 100200 [&#39;dropout[0][0]&#39;] dropout_1 (Dropout) (None, 200) 0 [&#39;dense_1[0][0]&#39;] dense_2 (Dense) (None, 80) 16080 [&#39;dropout_1[0][0]&#39;] dropout_2 (Dropout) (None, 80) 0 [&#39;dense_2[0][0]&#39;] dense_3 (Dense) (None, 20) 1620 [&#39;dropout_2[0][0]&#39;] dropout_3 (Dropout) (None, 20) 0 [&#39;dense_3[0][0]&#39;] dense_4 (Dense) (None, 10) 210 [&#39;dropout_3[0][0]&#39;] dense_5 (Dense) (None, 3) 33 [&#39;dense_4[0][0]&#39;] ================================================================================================== Total params: 702,043 Trainable params: 702,043 Non-trainable params: 0 __________________________________________________________________________________________________ Epoch 1/50 188/188 [==============================] - 17s 77ms/step - loss: 1.0797 - accuracy: 0.4032 -
…
9 | 0.423352 | 0.605344 | 0.605543 | 0.404745 | 0.405495 | 5 | LSTM | 2 | 3 | . Train shape: (83399, 6, 3) Test shape: (10292, 6, 3) Train shape: (83399, 6, 3) Test shape: (10292, 6, 3) Train shape: (83399, 2) Test shape: (10292, 2) Model: &#34;Modelo_IFA&#34; __________________________________________________________________________________________________ Layer (type) Output Shape Param # Connected to ================================================================================================== input_1 (InputLayer) [(None, 6, 3)] 0 [] input_2 (InputLayer) [(None, 6, 3)] 0 [] lstm (LSTM) (None, 6, 100) 41200 [&#39;input_1[0][0]&#39;] lstm_1 (LSTM) (None, 6, 100) 41200 [&#39;input_2[0][0]&#39;] reshape (Reshape) (None, 600) 0 [&#39;lstm[0][0]&#39;] reshape_1 (Reshape) (None, 600) 0 [&#39;lstm_1[0][0]&#39;] input_3 (InputLayer) [(None, 2)] 0 [] concatenate (Concatenate) (None, 1202) 0 [&#39;reshape[0][0]&#39;, &#39;reshape_1[0][0]&#39;, &#39;input_3[0][0]&#39;] dense (Dense) (None, 500) 601500 [&#39;concatenate[0][0]&#39;] dropout (Dropout) (None, 500) 0 [&#39;dense[0][0]&#39;] dense_1 (Dense) (None, 200) 100200 [&#39;dropout[0][0]&#39;] dropout_1 (Dropout) (None, 200) 0 [&#39;dense_1[0][0]&#39;] dense_2 (Dense) (None, 80) 16080 [&#39;dropout_1[0][0]&#39;] dropout_2 (Dropout) (None, 80) 0 [&#39;dense_2[0][0]&#39;] dense_3 (Dense) (None, 20) 1620 [&#39;dropout_2[0][0]&#39;] dropout_3 (Dropout) (None, 20) 0 [&#39;dense_3[0][0]&#39;] dense_4 (Dense) (None, 10) 210 [&#39;dropout_3[0][0]&#39;] dense_5 (Dense) (None, 3) 33 [&#39;dense_4[0][0]&#39;] ================================================================================================== Total params: 802,043 Trainable params: 802,043 Non-trainable params: 0 __________________________________________________________________________________________________ Epoch 1/50 188/188 [==============================] - 21s 96ms/step - loss: 1.0780 - accuracy: 0.4069 -
…
9 | 0.428311 | 0.612525 | 0.612039 | 0.401707 | 0.402642 | 6 | LSTM | 2 | 3 | . Train shape: (83399, 7, 3) Test shape: (10292, 7, 3) Train shape: (83399, 7, 3) Test shape: (10292, 7, 3) Train shape: (83399, 2) Test shape: (10292, 2) Model: &#34;Modelo_IFA&#34; __________________________________________________________________________________________________ Layer (type) Output Shape Param # Connected to ================================================================================================== input_1 (InputLayer) [(None, 7, 3)] 0 [] input_2 (InputLayer) [(None, 7, 3)] 0 [] lstm (LSTM) (None, 7, 100) 41200 [&#39;input_1[0][0]&#39;] lstm_1 (LSTM) (None, 7, 100) 41200 [&#39;input_2[0][0]&#39;] reshape (Reshape) (None, 700) 0 [&#39;lstm[0][0]&#39;] reshape_1 (Reshape) (None, 700) 0 [&#39;lstm_1[0][0]&#39;] input_3 (InputLayer) [(None, 2)] 0 [] concatenate (Concatenate) (None, 1402) 0 [&#39;reshape[0][0]&#39;, &#39;reshape_1[0][0]&#39;, &#39;input_3[0][0]&#39;] dense (Dense) (None, 500) 701500 [&#39;concatenate[0][0]&#39;] dropout (Dropout) (None, 500) 0 [&#39;dense[0][0]&#39;] dense_1 (Dense) (None, 200) 100200 [&#39;dropout[0][0]&#39;] dropout_1 (Dropout) (None, 200) 0 [&#39;dense_1[0][0]&#39;] dense_2 (Dense) (None, 80) 16080 [&#39;dropout_1[0][0]&#39;] dropout_2 (Dropout) (None, 80) 0 [&#39;dense_2[0][0]&#39;] dense_3 (Dense) (None, 20) 1620 [&#39;dropout_2[0][0]&#39;] dropout_3 (Dropout) (None, 20) 0 [&#39;dense_3[0][0]&#39;] dense_4 (Dense) (None, 10) 210 [&#39;dropout_3[0][0]&#39;] dense_5 (Dense) (None, 3) 33 [&#39;dense_4[0][0]&#39;] ================================================================================================== Total params: 902,043 Trainable params: 902,043 Non-trainable params: 0 __________________________________________________________________________________________________ Epoch 1/50 188/188 [==============================] - 28s 122ms/step - loss: 1.0814 - accuracy: 0.3984 
…
9 | 0.433721 | 0.615959 | 0.615889 | 0.416635 | 0.417222 | 7 | LSTM | 2 | 3 | . Train shape: (83399, 8, 3) Test shape: (10292, 8, 3) Train shape: (83399, 8, 3) Test shape: (10292, 8, 3) Train shape: (83399, 2) Test shape: (10292, 2) Model: &#34;Modelo_IFA&#34; __________________________________________________________________________________________________ Layer (type) Output Shape Param # Connected to ================================================================================================== input_1 (InputLayer) [(None, 8, 3)] 0 [] input_2 (InputLayer) [(None, 8, 3)] 0 [] lstm (LSTM) (None, 8, 100) 41200 [&#39;input_1[0][0]&#39;] lstm_1 (LSTM) (None, 8, 100) 41200 [&#39;input_2[0][0]&#39;] reshape (Reshape) (None, 800) 0 [&#39;lstm[0][0]&#39;] reshape_1 (Reshape) (None, 800) 0 [&#39;lstm_1[0][0]&#39;] input_3 (InputLayer) [(None, 2)] 0 [] concatenate (Concatenate) (None, 1602) 0 [&#39;reshape[0][0]&#39;, &#39;reshape_1[0][0]&#39;, &#39;input_3[0][0]&#39;] dense (Dense) (None, 500) 801500 [&#39;concatenate[0][0]&#39;] dropout (Dropout) (None, 500) 0 [&#39;dense[0][0]&#39;] dense_1 (Dense) (None, 200) 100200 [&#39;dropout[0][0]&#39;] dropout_1 (Dropout) (None, 200) 0 [&#39;dense_1[0][0]&#39;] dense_2 (Dense) (None, 80) 16080 [&#39;dropout_1[0][0]&#39;] dropout_2 (Dropout) (None, 80) 0 [&#39;dense_2[0][0]&#39;] dense_3 (Dense) (None, 20) 1620 [&#39;dropout_2[0][0]&#39;] dropout_3 (Dropout) (None, 20) 0 [&#39;dense_3[0][0]&#39;] dense_4 (Dense) (None, 10) 210 [&#39;dropout_3[0][0]&#39;] dense_5 (Dense) (None, 3) 33 [&#39;dense_4[0][0]&#39;] ================================================================================================== Total params: 1,002,043 Trainable params: 1,002,043 Non-trainable params: 0 __________________________________________________________________________________________________ Epoch 1/50 188/188 [==============================] - 27s 117ms/step - loss: 1.0764 - accuracy: 0.4
…
4 | 0.435172 | 0.618341 | 0.617855 | 0.415715 | 0.415966 | 8 | LSTM | 2 | 3 | . Train shape: (83399, 9, 3) Test shape: (10292, 9, 3) Train shape: (83399, 9, 3) Test shape: (10292, 9, 3) Train shape: (83399, 2) Test shape: (10292, 2) Model: &#34;Modelo_IFA&#34; __________________________________________________________________________________________________ Layer (type) Output Shape Param # Connected to ================================================================================================== input_1 (InputLayer) [(None, 9, 3)] 0 [] input_2 (InputLayer) [(None, 9, 3)] 0 [] lstm (LSTM) (None, 9, 100) 41200 [&#39;input_1[0][0]&#39;] lstm_1 (LSTM) (None, 9, 100) 41200 [&#39;input_2[0][0]&#39;] reshape (Reshape) (None, 900) 0 [&#39;lstm[0][0]&#39;] reshape_1 (Reshape) (None, 900) 0 [&#39;lstm_1[0][0]&#39;] input_3 (InputLayer) [(None, 2)] 0 [] concatenate (Concatenate) (None, 1802) 0 [&#39;reshape[0][0]&#39;, &#39;reshape_1[0][0]&#39;, &#39;input_3[0][0]&#39;] dense (Dense) (None, 500) 901500 [&#39;concatenate[0][0]&#39;] dropout (Dropout) (None, 500) 0 [&#39;dense[0][0]&#39;] dense_1 (Dense) (None, 200) 100200 [&#39;dropout[0][0]&#39;] dropout_1 (Dropout) (None, 200) 0 [&#39;dense_1[0][0]&#39;] dense_2 (Dense) (None, 80) 16080 [&#39;dropout_1[0][0]&#39;] dropout_2 (Dropout) (None, 80) 0 [&#39;dense_2[0][0]&#39;] dense_3 (Dense) (None, 20) 1620 [&#39;dropout_2[0][0]&#39;] dropout_3 (Dropout) (None, 20) 0 [&#39;dense_3[0][0]&#39;] dense_4 (Dense) (None, 10) 210 [&#39;dropout_3[0][0]&#39;] dense_5 (Dense) (None, 3) 33 [&#39;dense_4[0][0]&#39;] ================================================================================================== Total params: 1,102,043 Trainable params: 1,102,043 Non-trainable params: 0 __________________________________________________________________________________________________ Epoch 1/50 188/188 [==============================] - 27s 126ms/step - loss: 1.0803 - accuracy: 0.4
…
436612 | 0.621961 | 0.621458 | 0.423059 | 0.422832 | 9 | LSTM | 2 | 3 | . Train shape: (83399, 10, 3) Test shape: (10292, 10, 3) Train shape: (83399, 10, 3) Test shape: (10292, 10, 3) Train shape: (83399, 2) Test shape: (10292, 2) Model: &#34;Modelo_IFA&#34; __________________________________________________________________________________________________ Layer (type) Output Shape Param # Connected to ================================================================================================== input_1 (InputLayer) [(None, 10, 3)] 0 [] input_2 (InputLayer) [(None, 10, 3)] 0 [] lstm (LSTM) (None, 10, 100) 41200 [&#39;input_1[0][0]&#39;] lstm_1 (LSTM) (None, 10, 100) 41200 [&#39;input_2[0][0]&#39;] reshape (Reshape) (None, 1000) 0 [&#39;lstm[0][0]&#39;] reshape_1 (Reshape) (None, 1000) 0 [&#39;lstm_1[0][0]&#39;] input_3 (InputLayer) [(None, 2)] 0 [] concatenate (Concatenate) (None, 2002) 0 [&#39;reshape[0][0]&#39;, &#39;reshape_1[0][0]&#39;, &#39;input_3[0][0]&#39;] dense (Dense) (None, 500) 1001500 [&#39;concatenate[0][0]&#39;] dropout (Dropout) (None, 500) 0 [&#39;dense[0][0]&#39;] dense_1 (Dense) (None, 200) 100200 [&#39;dropout[0][0]&#39;] dropout_1 (Dropout) (None, 200) 0 [&#39;dense_1[0][0]&#39;] dense_2 (Dense) (None, 80) 16080 [&#39;dropout_1[0][0]&#39;] dropout_2 (Dropout) (None, 80) 0 [&#39;dense_2[0][0]&#39;] dense_3 (Dense) (None, 20) 1620 [&#39;dropout_2[0][0]&#39;] dropout_3 (Dropout) (None, 20) 0 [&#39;dense_3[0][0]&#39;] dense_4 (Dense) (None, 10) 210 [&#39;dropout_3[0][0]&#39;] dense_5 (Dense) (None, 3) 33 [&#39;dense_4[0][0]&#39;] ================================================================================================== Total params: 1,202,043 Trainable params: 1,202,043 Non-trainable params: 0 __________________________________________________________________________________________________ Epoch 1/50 188/188 [==============================] - 34s 158ms/step - loss: 1.0812 - accuracy: 0.3
…
 | 0.622327 | 0.622197 | 0.421499 | 0.422001 | 10 | LSTM | 2 | 3 | . Train shape: (83399, 1, 3) Test shape: (10292, 1, 3) Train shape: (83399, 1, 3) Test shape: (10292, 1, 3) Train shape: (83399, 2) Test shape: (10292, 2) Model: &#34;Modelo_IFA&#34; __________________________________________________________________________________________________ Layer (type) Output Shape Param # Connected to ================================================================================================== input_1 (InputLayer) [(None, 1, 3)] 0 [] input_2 (InputLayer) [(None, 1, 3)] 0 [] simple_rnn (SimpleRNN) (None, 1, 100) 10300 [&#39;input_1[0][0]&#39;] simple_rnn_1 (SimpleRNN) (None, 1, 100) 10300 [&#39;input_2[0][0]&#39;] reshape (Reshape) (None, 100) 0 [&#39;simple_rnn[0][0]&#39;] reshape_1 (Reshape) (None, 100) 0 [&#39;simple_rnn_1[0][0]&#39;] input_3 (InputLayer) [(None, 2)] 0 [] concatenate (Concatenate) (None, 202) 0 [&#39;reshape[0][0]&#39;, &#39;reshape_1[0][0]&#39;, &#39;input_3[0][0]&#39;] dense (Dense) (None, 500) 101500 [&#39;concatenate[0][0]&#39;] dropout (Dropout) (None, 500) 0 [&#39;dense[0][0]&#39;] dense_1 (Dense) (None, 200) 100200 [&#39;dropout[0][0]&#39;] dropout_1 (Dropout) (None, 200) 0 [&#39;dense_1[0][0]&#39;] dense_2 (Dense) (None, 80) 16080 [&#39;dropout_1[0][0]&#39;] dropout_2 (Dropout) (None, 80) 0 [&#39;dense_2[0][0]&#39;] dense_3 (Dense) (None, 20) 1620 [&#39;dropout_2[0][0]&#39;] dropout_3 (Dropout) (None, 20) 0 [&#39;dense_3[0][0]&#39;] dense_4 (Dense) (None, 10) 210 [&#39;dropout_3[0][0]&#39;] dense_5 (Dense) (None, 3) 33 [&#39;dense_4[0][0]&#39;] ================================================================================================== Total params: 240,243 Trainable params: 240,243 Non-trainable params: 0 __________________________________________________________________________________________________ Epoch 1/50 188/188 [==============================] - 7s 27ms/step - loss: 1.0916 - accuracy: 0.3711 - 
…
| 0.571308 | 0.571356 | 0.361291 | 0.362827 | 1 | Simple | 2 | 3 | . Train shape: (83399, 2, 3) Test shape: (10292, 2, 3) Train shape: (83399, 2, 3) Test shape: (10292, 2, 3) Train shape: (83399, 2) Test shape: (10292, 2) Model: &#34;Modelo_IFA&#34; __________________________________________________________________________________________________ Layer (type) Output Shape Param # Connected to ================================================================================================== input_1 (InputLayer) [(None, 2, 3)] 0 [] input_2 (InputLayer) [(None, 2, 3)] 0 [] simple_rnn (SimpleRNN) (None, 2, 100) 10300 [&#39;input_1[0][0]&#39;] simple_rnn_1 (SimpleRNN) (None, 2, 100) 10300 [&#39;input_2[0][0]&#39;] reshape (Reshape) (None, 200) 0 [&#39;simple_rnn[0][0]&#39;] reshape_1 (Reshape) (None, 200) 0 [&#39;simple_rnn_1[0][0]&#39;] input_3 (InputLayer) [(None, 2)] 0 [] concatenate (Concatenate) (None, 402) 0 [&#39;reshape[0][0]&#39;, &#39;reshape_1[0][0]&#39;, &#39;input_3[0][0]&#39;] dense (Dense) (None, 500) 201500 [&#39;concatenate[0][0]&#39;] dropout (Dropout) (None, 500) 0 [&#39;dense[0][0]&#39;] dense_1 (Dense) (None, 200) 100200 [&#39;dropout[0][0]&#39;] dropout_1 (Dropout) (None, 200) 0 [&#39;dense_1[0][0]&#39;] dense_2 (Dense) (None, 80) 16080 [&#39;dropout_1[0][0]&#39;] dropout_2 (Dropout) (None, 80) 0 [&#39;dense_2[0][0]&#39;] dense_3 (Dense) (None, 20) 1620 [&#39;dropout_2[0][0]&#39;] dropout_3 (Dropout) (None, 20) 0 [&#39;dense_3[0][0]&#39;] dense_4 (Dense) (None, 10) 210 [&#39;dropout_3[0][0]&#39;] dense_5 (Dense) (None, 3) 33 [&#39;dense_4[0][0]&#39;] ================================================================================================== Total params: 340,243 Trainable params: 340,243 Non-trainable params: 0 __________________________________________________________________________________________________ Epoch 1/50 188/188 [==============================] - 9s 35ms/step - loss: 1.0911 - accuracy: 0.3706 - 
…
| 0.585563 | 0.585721 | 0.349418 | 0.350517 | 2 | Simple | 2 | 3 | . Train shape: (83399, 3, 3) Test shape: (10292, 3, 3) Train shape: (83399, 3, 3) Test shape: (10292, 3, 3) Train shape: (83399, 2) Test shape: (10292, 2) Model: &#34;Modelo_IFA&#34; __________________________________________________________________________________________________ Layer (type) Output Shape Param # Connected to ================================================================================================== input_1 (InputLayer) [(None, 3, 3)] 0 [] input_2 (InputLayer) [(None, 3, 3)] 0 [] simple_rnn (SimpleRNN) (None, 3, 100) 10300 [&#39;input_1[0][0]&#39;] simple_rnn_1 (SimpleRNN) (None, 3, 100) 10300 [&#39;input_2[0][0]&#39;] reshape (Reshape) (None, 300) 0 [&#39;simple_rnn[0][0]&#39;] reshape_1 (Reshape) (None, 300) 0 [&#39;simple_rnn_1[0][0]&#39;] input_3 (InputLayer) [(None, 2)] 0 [] concatenate (Concatenate) (None, 602) 0 [&#39;reshape[0][0]&#39;, &#39;reshape_1[0][0]&#39;, &#39;input_3[0][0]&#39;] dense (Dense) (None, 500) 301500 [&#39;concatenate[0][0]&#39;] dropout (Dropout) (None, 500) 0 [&#39;dense[0][0]&#39;] dense_1 (Dense) (None, 200) 100200 [&#39;dropout[0][0]&#39;] dropout_1 (Dropout) (None, 200) 0 [&#39;dense_1[0][0]&#39;] dense_2 (Dense) (None, 80) 16080 [&#39;dropout_1[0][0]&#39;] dropout_2 (Dropout) (None, 80) 0 [&#39;dense_2[0][0]&#39;] dense_3 (Dense) (None, 20) 1620 [&#39;dropout_2[0][0]&#39;] dropout_3 (Dropout) (None, 20) 0 [&#39;dense_3[0][0]&#39;] dense_4 (Dense) (None, 10) 210 [&#39;dropout_3[0][0]&#39;] dense_5 (Dense) (None, 3) 33 [&#39;dense_4[0][0]&#39;] ================================================================================================== Total params: 440,243 Trainable params: 440,243 Non-trainable params: 0 __________________________________________________________________________________________________ Epoch 1/50 188/188 [==============================] - 10s 41ms/step - loss: 1.0894 - accuracy: 0.3819 -
…
| 0.595432 | 0.594923 | 0.404750 | 0.404876 | 3 | Simple | 2 | 3 | . Train shape: (83399, 4, 3) Test shape: (10292, 4, 3) Train shape: (83399, 4, 3) Test shape: (10292, 4, 3) Train shape: (83399, 2) Test shape: (10292, 2) Model: &#34;Modelo_IFA&#34; __________________________________________________________________________________________________ Layer (type) Output Shape Param # Connected to ================================================================================================== input_1 (InputLayer) [(None, 4, 3)] 0 [] input_2 (InputLayer) [(None, 4, 3)] 0 [] simple_rnn (SimpleRNN) (None, 4, 100) 10300 [&#39;input_1[0][0]&#39;] simple_rnn_1 (SimpleRNN) (None, 4, 100) 10300 [&#39;input_2[0][0]&#39;] reshape (Reshape) (None, 400) 0 [&#39;simple_rnn[0][0]&#39;] reshape_1 (Reshape) (None, 400) 0 [&#39;simple_rnn_1[0][0]&#39;] input_3 (InputLayer) [(None, 2)] 0 [] concatenate (Concatenate) (None, 802) 0 [&#39;reshape[0][0]&#39;, &#39;reshape_1[0][0]&#39;, &#39;input_3[0][0]&#39;] dense (Dense) (None, 500) 401500 [&#39;concatenate[0][0]&#39;] dropout (Dropout) (None, 500) 0 [&#39;dense[0][0]&#39;] dense_1 (Dense) (None, 200) 100200 [&#39;dropout[0][0]&#39;] dropout_1 (Dropout) (None, 200) 0 [&#39;dense_1[0][0]&#39;] dense_2 (Dense) (None, 80) 16080 [&#39;dropout_1[0][0]&#39;] dropout_2 (Dropout) (None, 80) 0 [&#39;dense_2[0][0]&#39;] dense_3 (Dense) (None, 20) 1620 [&#39;dropout_2[0][0]&#39;] dropout_3 (Dropout) (None, 20) 0 [&#39;dense_3[0][0]&#39;] dense_4 (Dense) (None, 10) 210 [&#39;dropout_3[0][0]&#39;] dense_5 (Dense) (None, 3) 33 [&#39;dense_4[0][0]&#39;] ================================================================================================== Total params: 540,243 Trainable params: 540,243 Non-trainable params: 0 __________________________________________________________________________________________________ Epoch 1/50 188/188 [==============================] - 11s 45ms/step - loss: 1.0870 - accuracy: 0.3834 -
…
| 0.607537 | 0.606712 | 0.412870 | 0.412646 | 4 | Simple | 2 | 3 | . Train shape: (83399, 5, 3) Test shape: (10292, 5, 3) Train shape: (83399, 5, 3) Test shape: (10292, 5, 3) Train shape: (83399, 2) Test shape: (10292, 2) Model: &#34;Modelo_IFA&#34; __________________________________________________________________________________________________ Layer (type) Output Shape Param # Connected to ================================================================================================== input_1 (InputLayer) [(None, 5, 3)] 0 [] input_2 (InputLayer) [(None, 5, 3)] 0 [] simple_rnn (SimpleRNN) (None, 5, 100) 10300 [&#39;input_1[0][0]&#39;] simple_rnn_1 (SimpleRNN) (None, 5, 100) 10300 [&#39;input_2[0][0]&#39;] reshape (Reshape) (None, 500) 0 [&#39;simple_rnn[0][0]&#39;] reshape_1 (Reshape) (None, 500) 0 [&#39;simple_rnn_1[0][0]&#39;] input_3 (InputLayer) [(None, 2)] 0 [] concatenate (Concatenate) (None, 1002) 0 [&#39;reshape[0][0]&#39;, &#39;reshape_1[0][0]&#39;, &#39;input_3[0][0]&#39;] dense (Dense) (None, 500) 501500 [&#39;concatenate[0][0]&#39;] dropout (Dropout) (None, 500) 0 [&#39;dense[0][0]&#39;] dense_1 (Dense) (None, 200) 100200 [&#39;dropout[0][0]&#39;] dropout_1 (Dropout) (None, 200) 0 [&#39;dense_1[0][0]&#39;] dense_2 (Dense) (None, 80) 16080 [&#39;dropout_1[0][0]&#39;] dropout_2 (Dropout) (None, 80) 0 [&#39;dense_2[0][0]&#39;] dense_3 (Dense) (None, 20) 1620 [&#39;dropout_2[0][0]&#39;] dropout_3 (Dropout) (None, 20) 0 [&#39;dense_3[0][0]&#39;] dense_4 (Dense) (None, 10) 210 [&#39;dropout_3[0][0]&#39;] dense_5 (Dense) (None, 3) 33 [&#39;dense_4[0][0]&#39;] ================================================================================================== Total params: 640,243 Trainable params: 640,243 Non-trainable params: 0 __________________________________________________________________________________________________ Epoch 1/50 188/188 [==============================] - 12s 52ms/step - loss: 1.0889 - accuracy: 0.3732 -
…
| 0.622865 | 0.620647 | 0.422771 | 0.421295 | 5 | Simple | 2 | 3 | . Train shape: (83399, 6, 3) Test shape: (10292, 6, 3) Train shape: (83399, 6, 3) Test shape: (10292, 6, 3) Train shape: (83399, 2) Test shape: (10292, 2) Model: &#34;Modelo_IFA&#34; __________________________________________________________________________________________________ Layer (type) Output Shape Param # Connected to ================================================================================================== input_1 (InputLayer) [(None, 6, 3)] 0 [] input_2 (InputLayer) [(None, 6, 3)] 0 [] simple_rnn (SimpleRNN) (None, 6, 100) 10300 [&#39;input_1[0][0]&#39;] simple_rnn_1 (SimpleRNN) (None, 6, 100) 10300 [&#39;input_2[0][0]&#39;] reshape (Reshape) (None, 600) 0 [&#39;simple_rnn[0][0]&#39;] reshape_1 (Reshape) (None, 600) 0 [&#39;simple_rnn_1[0][0]&#39;] input_3 (InputLayer) [(None, 2)] 0 [] concatenate (Concatenate) (None, 1202) 0 [&#39;reshape[0][0]&#39;, &#39;reshape_1[0][0]&#39;, &#39;input_3[0][0]&#39;] dense (Dense) (None, 500) 601500 [&#39;concatenate[0][0]&#39;] dropout (Dropout) (None, 500) 0 [&#39;dense[0][0]&#39;] dense_1 (Dense) (None, 200) 100200 [&#39;dropout[0][0]&#39;] dropout_1 (Dropout) (None, 200) 0 [&#39;dense_1[0][0]&#39;] dense_2 (Dense) (None, 80) 16080 [&#39;dropout_1[0][0]&#39;] dropout_2 (Dropout) (None, 80) 0 [&#39;dense_2[0][0]&#39;] dense_3 (Dense) (None, 20) 1620 [&#39;dropout_2[0][0]&#39;] dropout_3 (Dropout) (None, 20) 0 [&#39;dense_3[0][0]&#39;] dense_4 (Dense) (None, 10) 210 [&#39;dropout_3[0][0]&#39;] dense_5 (Dense) (None, 3) 33 [&#39;dense_4[0][0]&#39;] ================================================================================================== Total params: 740,243 Trainable params: 740,243 Non-trainable params: 0 __________________________________________________________________________________________________ Epoch 1/50 188/188 [==============================] - 13s 61ms/step - loss: 1.0839 - accuracy: 0.3900 -
…
| 0.621498 | 0.619183 | 0.430489 | 0.428656 | 6 | Simple | 2 | 3 | . Train shape: (83399, 7, 3) Test shape: (10292, 7, 3) Train shape: (83399, 7, 3) Test shape: (10292, 7, 3) Train shape: (83399, 2) Test shape: (10292, 2) Model: &#34;Modelo_IFA&#34; __________________________________________________________________________________________________ Layer (type) Output Shape Param # Connected to ================================================================================================== input_1 (InputLayer) [(None, 7, 3)] 0 [] input_2 (InputLayer) [(None, 7, 3)] 0 [] simple_rnn (SimpleRNN) (None, 7, 100) 10300 [&#39;input_1[0][0]&#39;] simple_rnn_1 (SimpleRNN) (None, 7, 100) 10300 [&#39;input_2[0][0]&#39;] reshape (Reshape) (None, 700) 0 [&#39;simple_rnn[0][0]&#39;] reshape_1 (Reshape) (None, 700) 0 [&#39;simple_rnn_1[0][0]&#39;] input_3 (InputLayer) [(None, 2)] 0 [] concatenate (Concatenate) (None, 1402) 0 [&#39;reshape[0][0]&#39;, &#39;reshape_1[0][0]&#39;, &#39;input_3[0][0]&#39;] dense (Dense) (None, 500) 701500 [&#39;concatenate[0][0]&#39;] dropout (Dropout) (None, 500) 0 [&#39;dense[0][0]&#39;] dense_1 (Dense) (None, 200) 100200 [&#39;dropout[0][0]&#39;] dropout_1 (Dropout) (None, 200) 0 [&#39;dense_1[0][0]&#39;] dense_2 (Dense) (None, 80) 16080 [&#39;dropout_1[0][0]&#39;] dropout_2 (Dropout) (None, 80) 0 [&#39;dense_2[0][0]&#39;] dense_3 (Dense) (None, 20) 1620 [&#39;dropout_2[0][0]&#39;] dropout_3 (Dropout) (None, 20) 0 [&#39;dense_3[0][0]&#39;] dense_4 (Dense) (None, 10) 210 [&#39;dropout_3[0][0]&#39;] dense_5 (Dense) (None, 3) 33 [&#39;dense_4[0][0]&#39;] ================================================================================================== Total params: 840,243 Trainable params: 840,243 Non-trainable params: 0 __________________________________________________________________________________________________ Epoch 1/50 188/188 [==============================] - 15s 68ms/step - loss: 1.0902 - accuracy: 0.3604 -
…
| 0.629456 | 0.626906 | 0.434556 | 0.432162 | 7 | Simple | 2 | 3 | . Train shape: (83399, 8, 3) Test shape: (10292, 8, 3) Train shape: (83399, 8, 3) Test shape: (10292, 8, 3) Train shape: (83399, 2) Test shape: (10292, 2) Model: &#34;Modelo_IFA&#34; __________________________________________________________________________________________________ Layer (type) Output Shape Param # Connected to ================================================================================================== input_1 (InputLayer) [(None, 8, 3)] 0 [] input_2 (InputLayer) [(None, 8, 3)] 0 [] simple_rnn (SimpleRNN) (None, 8, 100) 10300 [&#39;input_1[0][0]&#39;] simple_rnn_1 (SimpleRNN) (None, 8, 100) 10300 [&#39;input_2[0][0]&#39;] reshape (Reshape) (None, 800) 0 [&#39;simple_rnn[0][0]&#39;] reshape_1 (Reshape) (None, 800) 0 [&#39;simple_rnn_1[0][0]&#39;] input_3 (InputLayer) [(None, 2)] 0 [] concatenate (Concatenate) (None, 1602) 0 [&#39;reshape[0][0]&#39;, &#39;reshape_1[0][0]&#39;, &#39;input_3[0][0]&#39;] dense (Dense) (None, 500) 801500 [&#39;concatenate[0][0]&#39;] dropout (Dropout) (None, 500) 0 [&#39;dense[0][0]&#39;] dense_1 (Dense) (None, 200) 100200 [&#39;dropout[0][0]&#39;] dropout_1 (Dropout) (None, 200) 0 [&#39;dense_1[0][0]&#39;] dense_2 (Dense) (None, 80) 16080 [&#39;dropout_1[0][0]&#39;] dropout_2 (Dropout) (None, 80) 0 [&#39;dense_2[0][0]&#39;] dense_3 (Dense) (None, 20) 1620 [&#39;dropout_2[0][0]&#39;] dropout_3 (Dropout) (None, 20) 0 [&#39;dense_3[0][0]&#39;] dense_4 (Dense) (None, 10) 210 [&#39;dropout_3[0][0]&#39;] dense_5 (Dense) (None, 3) 33 [&#39;dense_4[0][0]&#39;] ================================================================================================== Total params: 940,243 Trainable params: 940,243 Non-trainable params: 0 __________________________________________________________________________________________________ Epoch 1/50 188/188 [==============================] - 16s 75ms/step - loss: 1.0829 - accuracy: 0.3919 -
…
| 0.631292 | 0.628751 | 0.427411 | 0.426077 | 8 | Simple | 2 | 3 | . Train shape: (83399, 9, 3) Test shape: (10292, 9, 3) Train shape: (83399, 9, 3) Test shape: (10292, 9, 3) Train shape: (83399, 2) Test shape: (10292, 2) Model: &#34;Modelo_IFA&#34; __________________________________________________________________________________________________ Layer (type) Output Shape Param # Connected to ================================================================================================== input_1 (InputLayer) [(None, 9, 3)] 0 [] input_2 (InputLayer) [(None, 9, 3)] 0 [] simple_rnn (SimpleRNN) (None, 9, 100) 10300 [&#39;input_1[0][0]&#39;] simple_rnn_1 (SimpleRNN) (None, 9, 100) 10300 [&#39;input_2[0][0]&#39;] reshape (Reshape) (None, 900) 0 [&#39;simple_rnn[0][0]&#39;] reshape_1 (Reshape) (None, 900) 0 [&#39;simple_rnn_1[0][0]&#39;] input_3 (InputLayer) [(None, 2)] 0 [] concatenate (Concatenate) (None, 1802) 0 [&#39;reshape[0][0]&#39;, &#39;reshape_1[0][0]&#39;, &#39;input_3[0][0]&#39;] dense (Dense) (None, 500) 901500 [&#39;concatenate[0][0]&#39;] dropout (Dropout) (None, 500) 0 [&#39;dense[0][0]&#39;] dense_1 (Dense) (None, 200) 100200 [&#39;dropout[0][0]&#39;] dropout_1 (Dropout) (None, 200) 0 [&#39;dense_1[0][0]&#39;] dense_2 (Dense) (None, 80) 16080 [&#39;dropout_1[0][0]&#39;] dropout_2 (Dropout) (None, 80) 0 [&#39;dense_2[0][0]&#39;] dense_3 (Dense) (None, 20) 1620 [&#39;dropout_2[0][0]&#39;] dropout_3 (Dropout) (None, 20) 0 [&#39;dense_3[0][0]&#39;] dense_4 (Dense) (None, 10) 210 [&#39;dropout_3[0][0]&#39;] dense_5 (Dense) (None, 3) 33 [&#39;dense_4[0][0]&#39;] ================================================================================================== Total params: 1,040,243 Trainable params: 1,040,243 Non-trainable params: 0 __________________________________________________________________________________________________ Epoch 1/50 188/188 [==============================] - 15s 70ms/step - loss: 1.0839 - accuracy: 0.38
…
3305 | 0.639364 | 0.450090 | 0.446546 | 9 | Simple | 2 | 3 | . Train shape: (83399, 10, 3) Test shape: (10292, 10, 3) Train shape: (83399, 10, 3) Test shape: (10292, 10, 3) Train shape: (83399, 2) Test shape: (10292, 2) Model: &#34;Modelo_IFA&#34; __________________________________________________________________________________________________ Layer (type) Output Shape Param # Connected to ================================================================================================== input_1 (InputLayer) [(None, 10, 3)] 0 [] input_2 (InputLayer) [(None, 10, 3)] 0 [] simple_rnn (SimpleRNN) (None, 10, 100) 10300 [&#39;input_1[0][0]&#39;] simple_rnn_1 (SimpleRNN) (None, 10, 100) 10300 [&#39;input_2[0][0]&#39;] reshape (Reshape) (None, 1000) 0 [&#39;simple_rnn[0][0]&#39;] reshape_1 (Reshape) (None, 1000) 0 [&#39;simple_rnn_1[0][0]&#39;] input_3 (InputLayer) [(None, 2)] 0 [] concatenate (Concatenate) (None, 2002) 0 [&#39;reshape[0][0]&#39;, &#39;reshape_1[0][0]&#39;, &#39;input_3[0][0]&#39;] dense (Dense) (None, 500) 1001500 [&#39;concatenate[0][0]&#39;] dropout (Dropout) (None, 500) 0 [&#39;dense[0][0]&#39;] dense_1 (Dense) (None, 200) 100200 [&#39;dropout[0][0]&#39;] dropout_1 (Dropout) (None, 200) 0 [&#39;dense_1[0][0]&#39;] dense_2 (Dense) (None, 80) 16080 [&#39;dropout_1[0][0]&#39;] dropout_2 (Dropout) (None, 80) 0 [&#39;dense_2[0][0]&#39;] dense_3 (Dense) (None, 20) 1620 [&#39;dropout_2[0][0]&#39;] dropout_3 (Dropout) (None, 20) 0 [&#39;dense_3[0][0]&#39;] dense_4 (Dense) (None, 10) 210 [&#39;dropout_3[0][0]&#39;] dense_5 (Dense) (None, 3) 33 [&#39;dense_4[0][0]&#39;] ================================================================================================== Total params: 1,140,243 Trainable params: 1,140,243 Non-trainable params: 0 __________________________________________________________________________________________________ Epoch 1/50 188/188 [==============================] - 19s 88ms/step - loss: 1.0872 - accuracy: 0.37
…
 0.449638 | 0.637246 | 0.634833 | 0.427514 | 0.426469 | 10 | Simple | 2 | 3 | . Train shape: (83399, 1, 3) Test shape: (10292, 1, 3) Train shape: (83399, 1, 3) Test shape: (10292, 1, 3) Train shape: (83399, 5) Test shape: (10292, 5) Model: &#34;Modelo_IFA&#34; __________________________________________________________________________________________________ Layer (type) Output Shape Param # Connected to ================================================================================================== input_1 (InputLayer) [(None, 1, 3)] 0 [] input_2 (InputLayer) [(None, 1, 3)] 0 [] lstm (LSTM) (None, 1, 100) 41200 [&#39;input_1[0][0]&#39;] lstm_1 (LSTM) (None, 1, 100) 41200 [&#39;input_2[0][0]&#39;] reshape (Reshape) (None, 100) 0 [&#39;lstm[0][0]&#39;] reshape_1 (Reshape) (None, 100) 0 [&#39;lstm_1[0][0]&#39;] input_3 (InputLayer) [(None, 5)] 0 [] concatenate (Concatenate) (None, 205) 0 [&#39;reshape[0][0]&#39;, &#39;reshape_1[0][0]&#39;, &#39;input_3[0][0]&#39;] dense (Dense) (None, 500) 103000 [&#39;concatenate[0][0]&#39;] dropout (Dropout) (None, 500) 0 [&#39;dense[0][0]&#39;] dense_1 (Dense) (None, 200) 100200 [&#39;dropout[0][0]&#39;] dropout_1 (Dropout) (None, 200) 0 [&#39;dense_1[0][0]&#39;] dense_2 (Dense) (None, 80) 16080 [&#39;dropout_1[0][0]&#39;] dropout_2 (Dropout) (None, 80) 0 [&#39;dense_2[0][0]&#39;] dense_3 (Dense) (None, 20) 1620 [&#39;dropout_2[0][0]&#39;] dropout_3 (Dropout) (None, 20) 0 [&#39;dense_3[0][0]&#39;] dense_4 (Dense) (None, 10) 210 [&#39;dropout_3[0][0]&#39;] dense_5 (Dense) (None, 3) 33 [&#39;dense_4[0][0]&#39;] ================================================================================================== Total params: 303,543 Trainable params: 303,543 Non-trainable params: 0 __________________________________________________________________________________________________ Epoch 1/50 188/188 [==============================] - 7s 29ms/step - loss: 1.0732 - accuracy: 0.3960 - 
…
4 | 0.437828 | 0.625655 | 0.626347 | 0.423762 | 0.424380 | 1 | LSTM | 5 | 3 | . Train shape: (83399, 2, 3) Test shape: (10292, 2, 3) Train shape: (83399, 2, 3) Test shape: (10292, 2, 3) Train shape: (83399, 5) Test shape: (10292, 5) Model: &#34;Modelo_IFA&#34; __________________________________________________________________________________________________ Layer (type) Output Shape Param # Connected to ================================================================================================== input_1 (InputLayer) [(None, 2, 3)] 0 [] input_2 (InputLayer) [(None, 2, 3)] 0 [] lstm (LSTM) (None, 2, 100) 41200 [&#39;input_1[0][0]&#39;] lstm_1 (LSTM) (None, 2, 100) 41200 [&#39;input_2[0][0]&#39;] reshape (Reshape) (None, 200) 0 [&#39;lstm[0][0]&#39;] reshape_1 (Reshape) (None, 200) 0 [&#39;lstm_1[0][0]&#39;] input_3 (InputLayer) [(None, 5)] 0 [] concatenate (Concatenate) (None, 405) 0 [&#39;reshape[0][0]&#39;, &#39;reshape_1[0][0]&#39;, &#39;input_3[0][0]&#39;] dense (Dense) (None, 500) 203000 [&#39;concatenate[0][0]&#39;] dropout (Dropout) (None, 500) 0 [&#39;dense[0][0]&#39;] dense_1 (Dense) (None, 200) 100200 [&#39;dropout[0][0]&#39;] dropout_1 (Dropout) (None, 200) 0 [&#39;dense_1[0][0]&#39;] dense_2 (Dense) (None, 80) 16080 [&#39;dropout_1[0][0]&#39;] dropout_2 (Dropout) (None, 80) 0 [&#39;dense_2[0][0]&#39;] dense_3 (Dense) (None, 20) 1620 [&#39;dropout_2[0][0]&#39;] dropout_3 (Dropout) (None, 20) 0 [&#39;dense_3[0][0]&#39;] dense_4 (Dense) (None, 10) 210 [&#39;dropout_3[0][0]&#39;] dense_5 (Dense) (None, 3) 33 [&#39;dense_4[0][0]&#39;] ================================================================================================== Total params: 403,543 Trainable params: 403,543 Non-trainable params: 0 __________________________________________________________________________________________________ Epoch 1/50 188/188 [==============================] - 10s 42ms/step - loss: 1.0682 - accuracy: 0.4160 -
…
9 | 0.441866 | 0.629152 | 0.629532 | 0.432957 | 0.433552 | 2 | LSTM | 5 | 3 | . Train shape: (83399, 3, 3) Test shape: (10292, 3, 3) Train shape: (83399, 3, 3) Test shape: (10292, 3, 3) Train shape: (83399, 5) Test shape: (10292, 5) Model: &#34;Modelo_IFA&#34; __________________________________________________________________________________________________ Layer (type) Output Shape Param # Connected to ================================================================================================== input_1 (InputLayer) [(None, 3, 3)] 0 [] input_2 (InputLayer) [(None, 3, 3)] 0 [] lstm (LSTM) (None, 3, 100) 41200 [&#39;input_1[0][0]&#39;] lstm_1 (LSTM) (None, 3, 100) 41200 [&#39;input_2[0][0]&#39;] reshape (Reshape) (None, 300) 0 [&#39;lstm[0][0]&#39;] reshape_1 (Reshape) (None, 300) 0 [&#39;lstm_1[0][0]&#39;] input_3 (InputLayer) [(None, 5)] 0 [] concatenate (Concatenate) (None, 605) 0 [&#39;reshape[0][0]&#39;, &#39;reshape_1[0][0]&#39;, &#39;input_3[0][0]&#39;] dense (Dense) (None, 500) 303000 [&#39;concatenate[0][0]&#39;] dropout (Dropout) (None, 500) 0 [&#39;dense[0][0]&#39;] dense_1 (Dense) (None, 200) 100200 [&#39;dropout[0][0]&#39;] dropout_1 (Dropout) (None, 200) 0 [&#39;dense_1[0][0]&#39;] dense_2 (Dense) (None, 80) 16080 [&#39;dropout_1[0][0]&#39;] dropout_2 (Dropout) (None, 80) 0 [&#39;dense_2[0][0]&#39;] dense_3 (Dense) (None, 20) 1620 [&#39;dropout_2[0][0]&#39;] dropout_3 (Dropout) (None, 20) 0 [&#39;dense_3[0][0]&#39;] dense_4 (Dense) (None, 10) 210 [&#39;dropout_3[0][0]&#39;] dense_5 (Dense) (None, 3) 33 [&#39;dense_4[0][0]&#39;] ================================================================================================== Total params: 503,543 Trainable params: 503,543 Non-trainable params: 0 __________________________________________________________________________________________________ Epoch 1/50 188/188 [==============================] - 13s 57ms/step - loss: 1.0683 - accuracy: 0.4180 -
…
5 | 0.446159 | 0.632552 | 0.633345 | 0.429800 | 0.431007 | 3 | LSTM | 5 | 3 | . Train shape: (83399, 4, 3) Test shape: (10292, 4, 3) Train shape: (83399, 4, 3) Test shape: (10292, 4, 3) Train shape: (83399, 5) Test shape: (10292, 5) Model: &#34;Modelo_IFA&#34; __________________________________________________________________________________________________ Layer (type) Output Shape Param # Connected to ================================================================================================== input_1 (InputLayer) [(None, 4, 3)] 0 [] input_2 (InputLayer) [(None, 4, 3)] 0 [] lstm (LSTM) (None, 4, 100) 41200 [&#39;input_1[0][0]&#39;] lstm_1 (LSTM) (None, 4, 100) 41200 [&#39;input_2[0][0]&#39;] reshape (Reshape) (None, 400) 0 [&#39;lstm[0][0]&#39;] reshape_1 (Reshape) (None, 400) 0 [&#39;lstm_1[0][0]&#39;] input_3 (InputLayer) [(None, 5)] 0 [] concatenate (Concatenate) (None, 805) 0 [&#39;reshape[0][0]&#39;, &#39;reshape_1[0][0]&#39;, &#39;input_3[0][0]&#39;] dense (Dense) (None, 500) 403000 [&#39;concatenate[0][0]&#39;] dropout (Dropout) (None, 500) 0 [&#39;dense[0][0]&#39;] dense_1 (Dense) (None, 200) 100200 [&#39;dropout[0][0]&#39;] dropout_1 (Dropout) (None, 200) 0 [&#39;dense_1[0][0]&#39;] dense_2 (Dense) (None, 80) 16080 [&#39;dropout_1[0][0]&#39;] dropout_2 (Dropout) (None, 80) 0 [&#39;dense_2[0][0]&#39;] dense_3 (Dense) (None, 20) 1620 [&#39;dropout_2[0][0]&#39;] dropout_3 (Dropout) (None, 20) 0 [&#39;dense_3[0][0]&#39;] dense_4 (Dense) (None, 10) 210 [&#39;dropout_3[0][0]&#39;] dense_5 (Dense) (None, 3) 33 [&#39;dense_4[0][0]&#39;] ================================================================================================== Total params: 603,543 Trainable params: 603,543 Non-trainable params: 0 __________________________________________________________________________________________________ Epoch 1/50 188/188 [==============================] - 18s 77ms/step - loss: 1.0660 - accuracy: 0.4241 -
…
0 | 0.446600 | 0.633238 | 0.633691 | 0.439542 | 0.440396 | 4 | LSTM | 5 | 3 | . Train shape: (83399, 5, 3) Test shape: (10292, 5, 3) Train shape: (83399, 5, 3) Test shape: (10292, 5, 3) Train shape: (83399, 5) Test shape: (10292, 5) Model: &#34;Modelo_IFA&#34; __________________________________________________________________________________________________ Layer (type) Output Shape Param # Connected to ================================================================================================== input_1 (InputLayer) [(None, 5, 3)] 0 [] input_2 (InputLayer) [(None, 5, 3)] 0 [] lstm (LSTM) (None, 5, 100) 41200 [&#39;input_1[0][0]&#39;] lstm_1 (LSTM) (None, 5, 100) 41200 [&#39;input_2[0][0]&#39;] reshape (Reshape) (None, 500) 0 [&#39;lstm[0][0]&#39;] reshape_1 (Reshape) (None, 500) 0 [&#39;lstm_1[0][0]&#39;] input_3 (InputLayer) [(None, 5)] 0 [] concatenate (Concatenate) (None, 1005) 0 [&#39;reshape[0][0]&#39;, &#39;reshape_1[0][0]&#39;, &#39;input_3[0][0]&#39;] dense (Dense) (None, 500) 503000 [&#39;concatenate[0][0]&#39;] dropout (Dropout) (None, 500) 0 [&#39;dense[0][0]&#39;] dense_1 (Dense) (None, 200) 100200 [&#39;dropout[0][0]&#39;] dropout_1 (Dropout) (None, 200) 0 [&#39;dense_1[0][0]&#39;] dense_2 (Dense) (None, 80) 16080 [&#39;dropout_1[0][0]&#39;] dropout_2 (Dropout) (None, 80) 0 [&#39;dense_2[0][0]&#39;] dense_3 (Dense) (None, 20) 1620 [&#39;dropout_2[0][0]&#39;] dropout_3 (Dropout) (None, 20) 0 [&#39;dense_3[0][0]&#39;] dense_4 (Dense) (None, 10) 210 [&#39;dropout_3[0][0]&#39;] dense_5 (Dense) (None, 3) 33 [&#39;dense_4[0][0]&#39;] ================================================================================================== Total params: 703,543 Trainable params: 703,543 Non-trainable params: 0 __________________________________________________________________________________________________ Epoch 1/50 188/188 [==============================] - 17s 77ms/step - loss: 1.0911 - accuracy: 0.3348 -
…
9 | 0.449687 | 0.637270 | 0.637300 | 0.438268 | 0.439050 | 5 | LSTM | 5 | 3 | . Train shape: (83399, 6, 3) Test shape: (10292, 6, 3) Train shape: (83399, 6, 3) Test shape: (10292, 6, 3) Train shape: (83399, 5) Test shape: (10292, 5) Model: &#34;Modelo_IFA&#34; __________________________________________________________________________________________________ Layer (type) Output Shape Param # Connected to ================================================================================================== input_1 (InputLayer) [(None, 6, 3)] 0 [] input_2 (InputLayer) [(None, 6, 3)] 0 [] lstm (LSTM) (None, 6, 100) 41200 [&#39;input_1[0][0]&#39;] lstm_1 (LSTM) (None, 6, 100) 41200 [&#39;input_2[0][0]&#39;] reshape (Reshape) (None, 600) 0 [&#39;lstm[0][0]&#39;] reshape_1 (Reshape) (None, 600) 0 [&#39;lstm_1[0][0]&#39;] input_3 (InputLayer) [(None, 5)] 0 [] concatenate (Concatenate) (None, 1205) 0 [&#39;reshape[0][0]&#39;, &#39;reshape_1[0][0]&#39;, &#39;input_3[0][0]&#39;] dense (Dense) (None, 500) 603000 [&#39;concatenate[0][0]&#39;] dropout (Dropout) (None, 500) 0 [&#39;dense[0][0]&#39;] dense_1 (Dense) (None, 200) 100200 [&#39;dropout[0][0]&#39;] dropout_1 (Dropout) (None, 200) 0 [&#39;dense_1[0][0]&#39;] dense_2 (Dense) (None, 80) 16080 [&#39;dropout_1[0][0]&#39;] dropout_2 (Dropout) (None, 80) 0 [&#39;dense_2[0][0]&#39;] dense_3 (Dense) (None, 20) 1620 [&#39;dropout_2[0][0]&#39;] dropout_3 (Dropout) (None, 20) 0 [&#39;dense_3[0][0]&#39;] dense_4 (Dense) (None, 10) 210 [&#39;dropout_3[0][0]&#39;] dense_5 (Dense) (None, 3) 33 [&#39;dense_4[0][0]&#39;] ================================================================================================== Total params: 803,543 Trainable params: 803,543 Non-trainable params: 0 __________________________________________________________________________________________________ Epoch 1/50 188/188 [==============================] - 23s 103ms/step - loss: 1.0684 - accuracy: 0.4136 
…
2 | 0.447746 | 0.636244 | 0.636658 | 0.438326 | 0.439369 | 6 | LSTM | 5 | 3 | . Train shape: (83399, 7, 3) Test shape: (10292, 7, 3) Train shape: (83399, 7, 3) Test shape: (10292, 7, 3) Train shape: (83399, 5) Test shape: (10292, 5) Model: &#34;Modelo_IFA&#34; __________________________________________________________________________________________________ Layer (type) Output Shape Param # Connected to ================================================================================================== input_1 (InputLayer) [(None, 7, 3)] 0 [] input_2 (InputLayer) [(None, 7, 3)] 0 [] lstm (LSTM) (None, 7, 100) 41200 [&#39;input_1[0][0]&#39;] lstm_1 (LSTM) (None, 7, 100) 41200 [&#39;input_2[0][0]&#39;] reshape (Reshape) (None, 700) 0 [&#39;lstm[0][0]&#39;] reshape_1 (Reshape) (None, 700) 0 [&#39;lstm_1[0][0]&#39;] input_3 (InputLayer) [(None, 5)] 0 [] concatenate (Concatenate) (None, 1405) 0 [&#39;reshape[0][0]&#39;, &#39;reshape_1[0][0]&#39;, &#39;input_3[0][0]&#39;] dense (Dense) (None, 500) 703000 [&#39;concatenate[0][0]&#39;] dropout (Dropout) (None, 500) 0 [&#39;dense[0][0]&#39;] dense_1 (Dense) (None, 200) 100200 [&#39;dropout[0][0]&#39;] dropout_1 (Dropout) (None, 200) 0 [&#39;dense_1[0][0]&#39;] dense_2 (Dense) (None, 80) 16080 [&#39;dropout_1[0][0]&#39;] dropout_2 (Dropout) (None, 80) 0 [&#39;dense_2[0][0]&#39;] dense_3 (Dense) (None, 20) 1620 [&#39;dropout_2[0][0]&#39;] dropout_3 (Dropout) (None, 20) 0 [&#39;dense_3[0][0]&#39;] dense_4 (Dense) (None, 10) 210 [&#39;dropout_3[0][0]&#39;] dense_5 (Dense) (None, 3) 33 [&#39;dense_4[0][0]&#39;] ================================================================================================== Total params: 903,543 Trainable params: 903,543 Non-trainable params: 0 __________________________________________________________________________________________________ Epoch 1/50 188/188 [==============================] - 26s 116ms/step - loss: 1.0711 - accuracy: 0.4197 
…
4 | 0.452921 | 0.639785 | 0.639764 | 0.439711 | 0.440177 | 7 | LSTM | 5 | 3 | . Train shape: (83399, 8, 3) Test shape: (10292, 8, 3) Train shape: (83399, 8, 3) Test shape: (10292, 8, 3) Train shape: (83399, 5) Test shape: (10292, 5) Model: &#34;Modelo_IFA&#34; __________________________________________________________________________________________________ Layer (type) Output Shape Param # Connected to ================================================================================================== input_1 (InputLayer) [(None, 8, 3)] 0 [] input_2 (InputLayer) [(None, 8, 3)] 0 [] lstm (LSTM) (None, 8, 100) 41200 [&#39;input_1[0][0]&#39;] lstm_1 (LSTM) (None, 8, 100) 41200 [&#39;input_2[0][0]&#39;] reshape (Reshape) (None, 800) 0 [&#39;lstm[0][0]&#39;] reshape_1 (Reshape) (None, 800) 0 [&#39;lstm_1[0][0]&#39;] input_3 (InputLayer) [(None, 5)] 0 [] concatenate (Concatenate) (None, 1605) 0 [&#39;reshape[0][0]&#39;, &#39;reshape_1[0][0]&#39;, &#39;input_3[0][0]&#39;] dense (Dense) (None, 500) 803000 [&#39;concatenate[0][0]&#39;] dropout (Dropout) (None, 500) 0 [&#39;dense[0][0]&#39;] dense_1 (Dense) (None, 200) 100200 [&#39;dropout[0][0]&#39;] dropout_1 (Dropout) (None, 200) 0 [&#39;dense_1[0][0]&#39;] dense_2 (Dense) (None, 80) 16080 [&#39;dropout_1[0][0]&#39;] dropout_2 (Dropout) (None, 80) 0 [&#39;dense_2[0][0]&#39;] dense_3 (Dense) (None, 20) 1620 [&#39;dropout_2[0][0]&#39;] dropout_3 (Dropout) (None, 20) 0 [&#39;dense_3[0][0]&#39;] dense_4 (Dense) (None, 10) 210 [&#39;dropout_3[0][0]&#39;] dense_5 (Dense) (None, 3) 33 [&#39;dense_4[0][0]&#39;] ================================================================================================== Total params: 1,003,543 Trainable params: 1,003,543 Non-trainable params: 0 __________________________________________________________________________________________________ Epoch 1/50 188/188 [==============================] - 27s 126ms/step - loss: 1.0794 - accuracy: 0.4
…
6 | 0.453568 | 0.641190 | 0.640821 | 0.442947 | 0.443066 | 8 | LSTM | 5 | 3 | . Train shape: (83399, 9, 3) Test shape: (10292, 9, 3) Train shape: (83399, 9, 3) Test shape: (10292, 9, 3) Train shape: (83399, 5) Test shape: (10292, 5) Model: &#34;Modelo_IFA&#34; __________________________________________________________________________________________________ Layer (type) Output Shape Param # Connected to ================================================================================================== input_1 (InputLayer) [(None, 9, 3)] 0 [] input_2 (InputLayer) [(None, 9, 3)] 0 [] lstm (LSTM) (None, 9, 100) 41200 [&#39;input_1[0][0]&#39;] lstm_1 (LSTM) (None, 9, 100) 41200 [&#39;input_2[0][0]&#39;] reshape (Reshape) (None, 900) 0 [&#39;lstm[0][0]&#39;] reshape_1 (Reshape) (None, 900) 0 [&#39;lstm_1[0][0]&#39;] input_3 (InputLayer) [(None, 5)] 0 [] concatenate (Concatenate) (None, 1805) 0 [&#39;reshape[0][0]&#39;, &#39;reshape_1[0][0]&#39;, &#39;input_3[0][0]&#39;] dense (Dense) (None, 500) 903000 [&#39;concatenate[0][0]&#39;] dropout (Dropout) (None, 500) 0 [&#39;dense[0][0]&#39;] dense_1 (Dense) (None, 200) 100200 [&#39;dropout[0][0]&#39;] dropout_1 (Dropout) (None, 200) 0 [&#39;dense_1[0][0]&#39;] dense_2 (Dense) (None, 80) 16080 [&#39;dropout_1[0][0]&#39;] dropout_2 (Dropout) (None, 80) 0 [&#39;dense_2[0][0]&#39;] dense_3 (Dense) (None, 20) 1620 [&#39;dropout_2[0][0]&#39;] dropout_3 (Dropout) (None, 20) 0 [&#39;dense_3[0][0]&#39;] dense_4 (Dense) (None, 10) 210 [&#39;dropout_3[0][0]&#39;] dense_5 (Dense) (None, 3) 33 [&#39;dense_4[0][0]&#39;] ================================================================================================== Total params: 1,103,543 Trainable params: 1,103,543 Non-trainable params: 0 __________________________________________________________________________________________________ Epoch 1/50 188/188 [==============================] - 32s 147ms/step - loss: 1.0748 - accuracy: 0.4
…
455117 | 0.643228 | 0.642921 | 0.443746 | 0.443928 | 9 | LSTM | 5 | 3 | . Train shape: (83399, 10, 3) Test shape: (10292, 10, 3) Train shape: (83399, 10, 3) Test shape: (10292, 10, 3) Train shape: (83399, 5) Test shape: (10292, 5) Model: &#34;Modelo_IFA&#34; __________________________________________________________________________________________________ Layer (type) Output Shape Param # Connected to ================================================================================================== input_1 (InputLayer) [(None, 10, 3)] 0 [] input_2 (InputLayer) [(None, 10, 3)] 0 [] lstm (LSTM) (None, 10, 100) 41200 [&#39;input_1[0][0]&#39;] lstm_1 (LSTM) (None, 10, 100) 41200 [&#39;input_2[0][0]&#39;] reshape (Reshape) (None, 1000) 0 [&#39;lstm[0][0]&#39;] reshape_1 (Reshape) (None, 1000) 0 [&#39;lstm_1[0][0]&#39;] input_3 (InputLayer) [(None, 5)] 0 [] concatenate (Concatenate) (None, 2005) 0 [&#39;reshape[0][0]&#39;, &#39;reshape_1[0][0]&#39;, &#39;input_3[0][0]&#39;] dense (Dense) (None, 500) 1003000 [&#39;concatenate[0][0]&#39;] dropout (Dropout) (None, 500) 0 [&#39;dense[0][0]&#39;] dense_1 (Dense) (None, 200) 100200 [&#39;dropout[0][0]&#39;] dropout_1 (Dropout) (None, 200) 0 [&#39;dense_1[0][0]&#39;] dense_2 (Dense) (None, 80) 16080 [&#39;dropout_1[0][0]&#39;] dropout_2 (Dropout) (None, 80) 0 [&#39;dense_2[0][0]&#39;] dense_3 (Dense) (None, 20) 1620 [&#39;dropout_2[0][0]&#39;] dropout_3 (Dropout) (None, 20) 0 [&#39;dense_3[0][0]&#39;] dense_4 (Dense) (None, 10) 210 [&#39;dropout_3[0][0]&#39;] dense_5 (Dense) (None, 3) 33 [&#39;dense_4[0][0]&#39;] ================================================================================================== Total params: 1,203,543 Trainable params: 1,203,543 Non-trainable params: 0 __________________________________________________________________________________________________ Epoch 1/50 188/188 [==============================] - 32s 152ms/step - loss: 1.0746 - accuracy: 0.4
…
 | 0.646171 | 0.645533 | 0.444971 | 0.444904 | 10 | LSTM | 5 | 3 | . Train shape: (83399, 1, 3) Test shape: (10292, 1, 3) Train shape: (83399, 1, 3) Test shape: (10292, 1, 3) Train shape: (83399, 5) Test shape: (10292, 5) Model: &#34;Modelo_IFA&#34; __________________________________________________________________________________________________ Layer (type) Output Shape Param # Connected to ================================================================================================== input_1 (InputLayer) [(None, 1, 3)] 0 [] input_2 (InputLayer) [(None, 1, 3)] 0 [] simple_rnn (SimpleRNN) (None, 1, 100) 10300 [&#39;input_1[0][0]&#39;] simple_rnn_1 (SimpleRNN) (None, 1, 100) 10300 [&#39;input_2[0][0]&#39;] reshape (Reshape) (None, 100) 0 [&#39;simple_rnn[0][0]&#39;] reshape_1 (Reshape) (None, 100) 0 [&#39;simple_rnn_1[0][0]&#39;] input_3 (InputLayer) [(None, 5)] 0 [] concatenate (Concatenate) (None, 205) 0 [&#39;reshape[0][0]&#39;, &#39;reshape_1[0][0]&#39;, &#39;input_3[0][0]&#39;] dense (Dense) (None, 500) 103000 [&#39;concatenate[0][0]&#39;] dropout (Dropout) (None, 500) 0 [&#39;dense[0][0]&#39;] dense_1 (Dense) (None, 200) 100200 [&#39;dropout[0][0]&#39;] dropout_1 (Dropout) (None, 200) 0 [&#39;dense_1[0][0]&#39;] dense_2 (Dense) (None, 80) 16080 [&#39;dropout_1[0][0]&#39;] dropout_2 (Dropout) (None, 80) 0 [&#39;dense_2[0][0]&#39;] dense_3 (Dense) (None, 20) 1620 [&#39;dropout_2[0][0]&#39;] dropout_3 (Dropout) (None, 20) 0 [&#39;dense_3[0][0]&#39;] dense_4 (Dense) (None, 10) 210 [&#39;dropout_3[0][0]&#39;] dense_5 (Dense) (None, 3) 33 [&#39;dense_4[0][0]&#39;] ================================================================================================== Total params: 241,743 Trainable params: 241,743 Non-trainable params: 0 __________________________________________________________________________________________________ Epoch 1/50 188/188 [==============================] - 7s 25ms/step - loss: 1.0756 - accuracy: 0.3931 - 
…
| 0.626643 | 0.627428 | 0.416025 | 0.417477 | 1 | Simple | 5 | 3 | . Train shape: (83399, 2, 3) Test shape: (10292, 2, 3) Train shape: (83399, 2, 3) Test shape: (10292, 2, 3) Train shape: (83399, 5) Test shape: (10292, 5) Model: &#34;Modelo_IFA&#34; __________________________________________________________________________________________________ Layer (type) Output Shape Param # Connected to ================================================================================================== input_1 (InputLayer) [(None, 2, 3)] 0 [] input_2 (InputLayer) [(None, 2, 3)] 0 [] simple_rnn (SimpleRNN) (None, 2, 100) 10300 [&#39;input_1[0][0]&#39;] simple_rnn_1 (SimpleRNN) (None, 2, 100) 10300 [&#39;input_2[0][0]&#39;] reshape (Reshape) (None, 200) 0 [&#39;simple_rnn[0][0]&#39;] reshape_1 (Reshape) (None, 200) 0 [&#39;simple_rnn_1[0][0]&#39;] input_3 (InputLayer) [(None, 5)] 0 [] concatenate (Concatenate) (None, 405) 0 [&#39;reshape[0][0]&#39;, &#39;reshape_1[0][0]&#39;, &#39;input_3[0][0]&#39;] dense (Dense) (None, 500) 203000 [&#39;concatenate[0][0]&#39;] dropout (Dropout) (None, 500) 0 [&#39;dense[0][0]&#39;] dense_1 (Dense) (None, 200) 100200 [&#39;dropout[0][0]&#39;] dropout_1 (Dropout) (None, 200) 0 [&#39;dense_1[0][0]&#39;] dense_2 (Dense) (None, 80) 16080 [&#39;dropout_1[0][0]&#39;] dropout_2 (Dropout) (None, 80) 0 [&#39;dense_2[0][0]&#39;] dense_3 (Dense) (None, 20) 1620 [&#39;dropout_2[0][0]&#39;] dropout_3 (Dropout) (None, 20) 0 [&#39;dense_3[0][0]&#39;] dense_4 (Dense) (None, 10) 210 [&#39;dropout_3[0][0]&#39;] dense_5 (Dense) (None, 3) 33 [&#39;dense_4[0][0]&#39;] ================================================================================================== Total params: 341,743 Trainable params: 341,743 Non-trainable params: 0 __________________________________________________________________________________________________ Epoch 1/50 188/188 [==============================] - 8s 32ms/step - loss: 1.0927 - accuracy: 0.3612 - 
…
| 0.630732 | 0.630879 | 0.431680 | 0.431837 | 2 | Simple | 5 | 3 | . Train shape: (83399, 3, 3) Test shape: (10292, 3, 3) Train shape: (83399, 3, 3) Test shape: (10292, 3, 3) Train shape: (83399, 5) Test shape: (10292, 5) Model: &#34;Modelo_IFA&#34; __________________________________________________________________________________________________ Layer (type) Output Shape Param # Connected to ================================================================================================== input_1 (InputLayer) [(None, 3, 3)] 0 [] input_2 (InputLayer) [(None, 3, 3)] 0 [] simple_rnn (SimpleRNN) (None, 3, 100) 10300 [&#39;input_1[0][0]&#39;] simple_rnn_1 (SimpleRNN) (None, 3, 100) 10300 [&#39;input_2[0][0]&#39;] reshape (Reshape) (None, 300) 0 [&#39;simple_rnn[0][0]&#39;] reshape_1 (Reshape) (None, 300) 0 [&#39;simple_rnn_1[0][0]&#39;] input_3 (InputLayer) [(None, 5)] 0 [] concatenate (Concatenate) (None, 605) 0 [&#39;reshape[0][0]&#39;, &#39;reshape_1[0][0]&#39;, &#39;input_3[0][0]&#39;] dense (Dense) (None, 500) 303000 [&#39;concatenate[0][0]&#39;] dropout (Dropout) (None, 500) 0 [&#39;dense[0][0]&#39;] dense_1 (Dense) (None, 200) 100200 [&#39;dropout[0][0]&#39;] dropout_1 (Dropout) (None, 200) 0 [&#39;dense_1[0][0]&#39;] dense_2 (Dense) (None, 80) 16080 [&#39;dropout_1[0][0]&#39;] dropout_2 (Dropout) (None, 80) 0 [&#39;dense_2[0][0]&#39;] dense_3 (Dense) (None, 20) 1620 [&#39;dropout_2[0][0]&#39;] dropout_3 (Dropout) (None, 20) 0 [&#39;dense_3[0][0]&#39;] dense_4 (Dense) (None, 10) 210 [&#39;dropout_3[0][0]&#39;] dense_5 (Dense) (None, 3) 33 [&#39;dense_4[0][0]&#39;] ================================================================================================== Total params: 441,743 Trainable params: 441,743 Non-trainable params: 0 __________________________________________________________________________________________________ Epoch 1/50 188/188 [==============================] - 9s 39ms/step - loss: 1.0874 - accuracy: 0.3856 - 
…
| 0.639010 | 0.638336 | 0.447674 | 0.447127 | 3 | Simple | 5 | 3 | . Train shape: (83399, 4, 3) Test shape: (10292, 4, 3) Train shape: (83399, 4, 3) Test shape: (10292, 4, 3) Train shape: (83399, 5) Test shape: (10292, 5) Model: &#34;Modelo_IFA&#34; __________________________________________________________________________________________________ Layer (type) Output Shape Param # Connected to ================================================================================================== input_1 (InputLayer) [(None, 4, 3)] 0 [] input_2 (InputLayer) [(None, 4, 3)] 0 [] simple_rnn (SimpleRNN) (None, 4, 100) 10300 [&#39;input_1[0][0]&#39;] simple_rnn_1 (SimpleRNN) (None, 4, 100) 10300 [&#39;input_2[0][0]&#39;] reshape (Reshape) (None, 400) 0 [&#39;simple_rnn[0][0]&#39;] reshape_1 (Reshape) (None, 400) 0 [&#39;simple_rnn_1[0][0]&#39;] input_3 (InputLayer) [(None, 5)] 0 [] concatenate (Concatenate) (None, 805) 0 [&#39;reshape[0][0]&#39;, &#39;reshape_1[0][0]&#39;, &#39;input_3[0][0]&#39;] dense (Dense) (None, 500) 403000 [&#39;concatenate[0][0]&#39;] dropout (Dropout) (None, 500) 0 [&#39;dense[0][0]&#39;] dense_1 (Dense) (None, 200) 100200 [&#39;dropout[0][0]&#39;] dropout_1 (Dropout) (None, 200) 0 [&#39;dense_1[0][0]&#39;] dense_2 (Dense) (None, 80) 16080 [&#39;dropout_1[0][0]&#39;] dropout_2 (Dropout) (None, 80) 0 [&#39;dense_2[0][0]&#39;] dense_3 (Dense) (None, 20) 1620 [&#39;dropout_2[0][0]&#39;] dropout_3 (Dropout) (None, 20) 0 [&#39;dense_3[0][0]&#39;] dense_4 (Dense) (None, 10) 210 [&#39;dropout_3[0][0]&#39;] dense_5 (Dense) (None, 3) 33 [&#39;dense_4[0][0]&#39;] ================================================================================================== Total params: 541,743 Trainable params: 541,743 Non-trainable params: 0 __________________________________________________________________________________________________ Epoch 1/50 188/188 [==============================] - 12s 51ms/step - loss: 1.0804 - accuracy: 0.3906 -
…
| 0.639347 | 0.638959 | 0.428653 | 0.429060 | 4 | Simple | 5 | 3 | . Train shape: (83399, 5, 3) Test shape: (10292, 5, 3) Train shape: (83399, 5, 3) Test shape: (10292, 5, 3) Train shape: (83399, 5) Test shape: (10292, 5) Model: &#34;Modelo_IFA&#34; __________________________________________________________________________________________________ Layer (type) Output Shape Param # Connected to ================================================================================================== input_1 (InputLayer) [(None, 5, 3)] 0 [] input_2 (InputLayer) [(None, 5, 3)] 0 [] simple_rnn (SimpleRNN) (None, 5, 100) 10300 [&#39;input_1[0][0]&#39;] simple_rnn_1 (SimpleRNN) (None, 5, 100) 10300 [&#39;input_2[0][0]&#39;] reshape (Reshape) (None, 500) 0 [&#39;simple_rnn[0][0]&#39;] reshape_1 (Reshape) (None, 500) 0 [&#39;simple_rnn_1[0][0]&#39;] input_3 (InputLayer) [(None, 5)] 0 [] concatenate (Concatenate) (None, 1005) 0 [&#39;reshape[0][0]&#39;, &#39;reshape_1[0][0]&#39;, &#39;input_3[0][0]&#39;] dense (Dense) (None, 500) 503000 [&#39;concatenate[0][0]&#39;] dropout (Dropout) (None, 500) 0 [&#39;dense[0][0]&#39;] dense_1 (Dense) (None, 200) 100200 [&#39;dropout[0][0]&#39;] dropout_1 (Dropout) (None, 200) 0 [&#39;dense_1[0][0]&#39;] dense_2 (Dense) (None, 80) 16080 [&#39;dropout_1[0][0]&#39;] dropout_2 (Dropout) (None, 80) 0 [&#39;dense_2[0][0]&#39;] dense_3 (Dense) (None, 20) 1620 [&#39;dropout_2[0][0]&#39;] dropout_3 (Dropout) (None, 20) 0 [&#39;dense_3[0][0]&#39;] dense_4 (Dense) (None, 10) 210 [&#39;dropout_3[0][0]&#39;] dense_5 (Dense) (None, 3) 33 [&#39;dense_4[0][0]&#39;] ================================================================================================== Total params: 641,743 Trainable params: 641,743 Non-trainable params: 0 __________________________________________________________________________________________________ Epoch 1/50 188/188 [==============================] - 12s 54ms/step - loss: 1.0838 - accuracy: 0.3866 -
…
| 0.645373 | 0.643587 | 0.453725 | 0.452403 | 5 | Simple | 5 | 3 | . Train shape: (83399, 6, 3) Test shape: (10292, 6, 3) Train shape: (83399, 6, 3) Test shape: (10292, 6, 3) Train shape: (83399, 5) Test shape: (10292, 5) Model: &#34;Modelo_IFA&#34; __________________________________________________________________________________________________ Layer (type) Output Shape Param # Connected to ================================================================================================== input_1 (InputLayer) [(None, 6, 3)] 0 [] input_2 (InputLayer) [(None, 6, 3)] 0 [] simple_rnn (SimpleRNN) (None, 6, 100) 10300 [&#39;input_1[0][0]&#39;] simple_rnn_1 (SimpleRNN) (None, 6, 100) 10300 [&#39;input_2[0][0]&#39;] reshape (Reshape) (None, 600) 0 [&#39;simple_rnn[0][0]&#39;] reshape_1 (Reshape) (None, 600) 0 [&#39;simple_rnn_1[0][0]&#39;] input_3 (InputLayer) [(None, 5)] 0 [] concatenate (Concatenate) (None, 1205) 0 [&#39;reshape[0][0]&#39;, &#39;reshape_1[0][0]&#39;, &#39;input_3[0][0]&#39;] dense (Dense) (None, 500) 603000 [&#39;concatenate[0][0]&#39;] dropout (Dropout) (None, 500) 0 [&#39;dense[0][0]&#39;] dense_1 (Dense) (None, 200) 100200 [&#39;dropout[0][0]&#39;] dropout_1 (Dropout) (None, 200) 0 [&#39;dense_1[0][0]&#39;] dense_2 (Dense) (None, 80) 16080 [&#39;dropout_1[0][0]&#39;] dropout_2 (Dropout) (None, 80) 0 [&#39;dense_2[0][0]&#39;] dense_3 (Dense) (None, 20) 1620 [&#39;dropout_2[0][0]&#39;] dropout_3 (Dropout) (None, 20) 0 [&#39;dense_3[0][0]&#39;] dense_4 (Dense) (None, 10) 210 [&#39;dropout_3[0][0]&#39;] dense_5 (Dense) (None, 3) 33 [&#39;dense_4[0][0]&#39;] ================================================================================================== Total params: 741,743 Trainable params: 741,743 Non-trainable params: 0 __________________________________________________________________________________________________ Epoch 1/50 188/188 [==============================] - 13s 60ms/step - loss: 1.0825 - accuracy: 0.3941 -
…
| 0.644805 | 0.642787 | 0.451708 | 0.450328 | 6 | Simple | 5 | 3 | . Train shape: (83399, 7, 3) Test shape: (10292, 7, 3) Train shape: (83399, 7, 3) Test shape: (10292, 7, 3) Train shape: (83399, 5) Test shape: (10292, 5) Model: &#34;Modelo_IFA&#34; __________________________________________________________________________________________________ Layer (type) Output Shape Param # Connected to ================================================================================================== input_1 (InputLayer) [(None, 7, 3)] 0 [] input_2 (InputLayer) [(None, 7, 3)] 0 [] simple_rnn (SimpleRNN) (None, 7, 100) 10300 [&#39;input_1[0][0]&#39;] simple_rnn_1 (SimpleRNN) (None, 7, 100) 10300 [&#39;input_2[0][0]&#39;] reshape (Reshape) (None, 700) 0 [&#39;simple_rnn[0][0]&#39;] reshape_1 (Reshape) (None, 700) 0 [&#39;simple_rnn_1[0][0]&#39;] input_3 (InputLayer) [(None, 5)] 0 [] concatenate (Concatenate) (None, 1405) 0 [&#39;reshape[0][0]&#39;, &#39;reshape_1[0][0]&#39;, &#39;input_3[0][0]&#39;] dense (Dense) (None, 500) 703000 [&#39;concatenate[0][0]&#39;] dropout (Dropout) (None, 500) 0 [&#39;dense[0][0]&#39;] dense_1 (Dense) (None, 200) 100200 [&#39;dropout[0][0]&#39;] dropout_1 (Dropout) (None, 200) 0 [&#39;dense_1[0][0]&#39;] dense_2 (Dense) (None, 80) 16080 [&#39;dropout_1[0][0]&#39;] dropout_2 (Dropout) (None, 80) 0 [&#39;dense_2[0][0]&#39;] dense_3 (Dense) (None, 20) 1620 [&#39;dropout_2[0][0]&#39;] dropout_3 (Dropout) (None, 20) 0 [&#39;dense_3[0][0]&#39;] dense_4 (Dense) (None, 10) 210 [&#39;dropout_3[0][0]&#39;] dense_5 (Dense) (None, 3) 33 [&#39;dense_4[0][0]&#39;] ================================================================================================== Total params: 841,743 Trainable params: 841,743 Non-trainable params: 0 __________________________________________________________________________________________________ Epoch 1/50 188/188 [==============================] - 16s 72ms/step - loss: 1.0801 - accuracy: 0.3980 -
…
| 0.659058 | 0.655686 | 0.465539 | 0.462539 | 7 | Simple | 5 | 3 | . Train shape: (83399, 8, 3) Test shape: (10292, 8, 3) Train shape: (83399, 8, 3) Test shape: (10292, 8, 3) Train shape: (83399, 5) Test shape: (10292, 5) Model: &#34;Modelo_IFA&#34; __________________________________________________________________________________________________ Layer (type) Output Shape Param # Connected to ================================================================================================== input_1 (InputLayer) [(None, 8, 3)] 0 [] input_2 (InputLayer) [(None, 8, 3)] 0 [] simple_rnn (SimpleRNN) (None, 8, 100) 10300 [&#39;input_1[0][0]&#39;] simple_rnn_1 (SimpleRNN) (None, 8, 100) 10300 [&#39;input_2[0][0]&#39;] reshape (Reshape) (None, 800) 0 [&#39;simple_rnn[0][0]&#39;] reshape_1 (Reshape) (None, 800) 0 [&#39;simple_rnn_1[0][0]&#39;] input_3 (InputLayer) [(None, 5)] 0 [] concatenate (Concatenate) (None, 1605) 0 [&#39;reshape[0][0]&#39;, &#39;reshape_1[0][0]&#39;, &#39;input_3[0][0]&#39;] dense (Dense) (None, 500) 803000 [&#39;concatenate[0][0]&#39;] dropout (Dropout) (None, 500) 0 [&#39;dense[0][0]&#39;] dense_1 (Dense) (None, 200) 100200 [&#39;dropout[0][0]&#39;] dropout_1 (Dropout) (None, 200) 0 [&#39;dense_1[0][0]&#39;] dense_2 (Dense) (None, 80) 16080 [&#39;dropout_1[0][0]&#39;] dropout_2 (Dropout) (None, 80) 0 [&#39;dense_2[0][0]&#39;] dense_3 (Dense) (None, 20) 1620 [&#39;dropout_2[0][0]&#39;] dropout_3 (Dropout) (None, 20) 0 [&#39;dense_3[0][0]&#39;] dense_4 (Dense) (None, 10) 210 [&#39;dropout_3[0][0]&#39;] dense_5 (Dense) (None, 3) 33 [&#39;dense_4[0][0]&#39;] ================================================================================================== Total params: 941,743 Trainable params: 941,743 Non-trainable params: 0 __________________________________________________________________________________________________ Epoch 1/50 188/188 [==============================] - 15s 70ms/step - loss: 1.0843 - accuracy: 0.3914 -
…
| 0.654992 | 0.652658 | 0.455539 | 0.453898 | 8 | Simple | 5 | 3 | . Train shape: (83399, 9, 3) Test shape: (10292, 9, 3) Train shape: (83399, 9, 3) Test shape: (10292, 9, 3) Train shape: (83399, 5) Test shape: (10292, 5) Model: &#34;Modelo_IFA&#34; __________________________________________________________________________________________________ Layer (type) Output Shape Param # Connected to ================================================================================================== input_1 (InputLayer) [(None, 9, 3)] 0 [] input_2 (InputLayer) [(None, 9, 3)] 0 [] simple_rnn (SimpleRNN) (None, 9, 100) 10300 [&#39;input_1[0][0]&#39;] simple_rnn_1 (SimpleRNN) (None, 9, 100) 10300 [&#39;input_2[0][0]&#39;] reshape (Reshape) (None, 900) 0 [&#39;simple_rnn[0][0]&#39;] reshape_1 (Reshape) (None, 900) 0 [&#39;simple_rnn_1[0][0]&#39;] input_3 (InputLayer) [(None, 5)] 0 [] concatenate (Concatenate) (None, 1805) 0 [&#39;reshape[0][0]&#39;, &#39;reshape_1[0][0]&#39;, &#39;input_3[0][0]&#39;] dense (Dense) (None, 500) 903000 [&#39;concatenate[0][0]&#39;] dropout (Dropout) (None, 500) 0 [&#39;dense[0][0]&#39;] dense_1 (Dense) (None, 200) 100200 [&#39;dropout[0][0]&#39;] dropout_1 (Dropout) (None, 200) 0 [&#39;dense_1[0][0]&#39;] dense_2 (Dense) (None, 80) 16080 [&#39;dropout_1[0][0]&#39;] dropout_2 (Dropout) (None, 80) 0 [&#39;dense_2[0][0]&#39;] dense_3 (Dense) (None, 20) 1620 [&#39;dropout_2[0][0]&#39;] dropout_3 (Dropout) (None, 20) 0 [&#39;dense_3[0][0]&#39;] dense_4 (Dense) (None, 10) 210 [&#39;dropout_3[0][0]&#39;] dense_5 (Dense) (None, 3) 33 [&#39;dense_4[0][0]&#39;] ================================================================================================== Total params: 1,041,743 Trainable params: 1,041,743 Non-trainable params: 0 __________________________________________________________________________________________________ Epoch 1/50 188/188 [==============================] - 17s 78ms/step - loss: 1.0791 - accuracy: 0.39
…
8120 | 0.655249 | 0.459234 | 0.456988 | 9 | Simple | 5 | 3 | . Train shape: (83399, 10, 3) Test shape: (10292, 10, 3) Train shape: (83399, 10, 3) Test shape: (10292, 10, 3) Train shape: (83399, 5) Test shape: (10292, 5) Model: &#34;Modelo_IFA&#34; __________________________________________________________________________________________________ Layer (type) Output Shape Param # Connected to ================================================================================================== input_1 (InputLayer) [(None, 10, 3)] 0 [] input_2 (InputLayer) [(None, 10, 3)] 0 [] simple_rnn (SimpleRNN) (None, 10, 100) 10300 [&#39;input_1[0][0]&#39;] simple_rnn_1 (SimpleRNN) (None, 10, 100) 10300 [&#39;input_2[0][0]&#39;] reshape (Reshape) (None, 1000) 0 [&#39;simple_rnn[0][0]&#39;] reshape_1 (Reshape) (None, 1000) 0 [&#39;simple_rnn_1[0][0]&#39;] input_3 (InputLayer) [(None, 5)] 0 [] concatenate (Concatenate) (None, 2005) 0 [&#39;reshape[0][0]&#39;, &#39;reshape_1[0][0]&#39;, &#39;input_3[0][0]&#39;] dense (Dense) (None, 500) 1003000 [&#39;concatenate[0][0]&#39;] dropout (Dropout) (None, 500) 0 [&#39;dense[0][0]&#39;] dense_1 (Dense) (None, 200) 100200 [&#39;dropout[0][0]&#39;] dropout_1 (Dropout) (None, 200) 0 [&#39;dense_1[0][0]&#39;] dense_2 (Dense) (None, 80) 16080 [&#39;dropout_1[0][0]&#39;] dropout_2 (Dropout) (None, 80) 0 [&#39;dense_2[0][0]&#39;] dense_3 (Dense) (None, 20) 1620 [&#39;dropout_2[0][0]&#39;] dropout_3 (Dropout) (None, 20) 0 [&#39;dense_3[0][0]&#39;] dense_4 (Dense) (None, 10) 210 [&#39;dropout_3[0][0]&#39;] dense_5 (Dense) (None, 3) 33 [&#39;dense_4[0][0]&#39;] ================================================================================================== Total params: 1,141,743 Trainable params: 1,141,743 Non-trainable params: 0 __________________________________________________________________________________________________ Epoch 1/50 188/188 [==============================] - 19s 89ms/step - loss: 1.0897 - accuracy: 0.36
…
 0.473885 | 0.664433 | 0.660911 | 0.471451 | 0.468173 | 10 | Simple | 5 | 3 | . Train shape: (83399, 1, 3) Test shape: (10292, 1, 3) Train shape: (83399, 1, 3) Test shape: (10292, 1, 3) Train shape: (83399, 8) Test shape: (10292, 8) Model: &#34;Modelo_IFA&#34; __________________________________________________________________________________________________ Layer (type) Output Shape Param # Connected to ================================================================================================== input_1 (InputLayer) [(None, 1, 3)] 0 [] input_2 (InputLayer) [(None, 1, 3)] 0 [] lstm (LSTM) (None, 1, 100) 41200 [&#39;input_1[0][0]&#39;] lstm_1 (LSTM) (None, 1, 100) 41200 [&#39;input_2[0][0]&#39;] reshape (Reshape) (None, 100) 0 [&#39;lstm[0][0]&#39;] reshape_1 (Reshape) (None, 100) 0 [&#39;lstm_1[0][0]&#39;] input_3 (InputLayer) [(None, 8)] 0 [] concatenate (Concatenate) (None, 208) 0 [&#39;reshape[0][0]&#39;, &#39;reshape_1[0][0]&#39;, &#39;input_3[0][0]&#39;] dense (Dense) (None, 500) 104500 [&#39;concatenate[0][0]&#39;] dropout (Dropout) (None, 500) 0 [&#39;dense[0][0]&#39;] dense_1 (Dense) (None, 200) 100200 [&#39;dropout[0][0]&#39;] dropout_1 (Dropout) (None, 200) 0 [&#39;dense_1[0][0]&#39;] dense_2 (Dense) (None, 80) 16080 [&#39;dropout_1[0][0]&#39;] dropout_2 (Dropout) (None, 80) 0 [&#39;dense_2[0][0]&#39;] dense_3 (Dense) (None, 20) 1620 [&#39;dropout_2[0][0]&#39;] dropout_3 (Dropout) (None, 20) 0 [&#39;dense_3[0][0]&#39;] dense_4 (Dense) (None, 10) 210 [&#39;dropout_3[0][0]&#39;] dense_5 (Dense) (None, 3) 33 [&#39;dense_4[0][0]&#39;] ================================================================================================== Total params: 305,043 Trainable params: 305,043 Non-trainable params: 0 __________________________________________________________________________________________________ Epoch 1/50 188/188 [==============================] - 7s 31ms/step - loss: 1.0698 - accuracy: 0.4186 - 
…
3 | 0.439268 | 0.626936 | 0.627383 | 0.426847 | 0.427606 | 1 | LSTM | 8 | 3 | . Train shape: (83399, 2, 3) Test shape: (10292, 2, 3) Train shape: (83399, 2, 3) Test shape: (10292, 2, 3) Train shape: (83399, 8) Test shape: (10292, 8) Model: &#34;Modelo_IFA&#34; __________________________________________________________________________________________________ Layer (type) Output Shape Param # Connected to ================================================================================================== input_1 (InputLayer) [(None, 2, 3)] 0 [] input_2 (InputLayer) [(None, 2, 3)] 0 [] lstm (LSTM) (None, 2, 100) 41200 [&#39;input_1[0][0]&#39;] lstm_1 (LSTM) (None, 2, 100) 41200 [&#39;input_2[0][0]&#39;] reshape (Reshape) (None, 200) 0 [&#39;lstm[0][0]&#39;] reshape_1 (Reshape) (None, 200) 0 [&#39;lstm_1[0][0]&#39;] input_3 (InputLayer) [(None, 8)] 0 [] concatenate (Concatenate) (None, 408) 0 [&#39;reshape[0][0]&#39;, &#39;reshape_1[0][0]&#39;, &#39;input_3[0][0]&#39;] dense (Dense) (None, 500) 204500 [&#39;concatenate[0][0]&#39;] dropout (Dropout) (None, 500) 0 [&#39;dense[0][0]&#39;] dense_1 (Dense) (None, 200) 100200 [&#39;dropout[0][0]&#39;] dropout_1 (Dropout) (None, 200) 0 [&#39;dense_1[0][0]&#39;] dense_2 (Dense) (None, 80) 16080 [&#39;dropout_1[0][0]&#39;] dropout_2 (Dropout) (None, 80) 0 [&#39;dense_2[0][0]&#39;] dense_3 (Dense) (None, 20) 1620 [&#39;dropout_2[0][0]&#39;] dropout_3 (Dropout) (None, 20) 0 [&#39;dense_3[0][0]&#39;] dense_4 (Dense) (None, 10) 210 [&#39;dropout_3[0][0]&#39;] dense_5 (Dense) (None, 3) 33 [&#39;dense_4[0][0]&#39;] ================================================================================================== Total params: 405,043 Trainable params: 405,043 Non-trainable params: 0 __________________________________________________________________________________________________ Epoch 1/50 188/188 [==============================] - 10s 43ms/step - loss: 1.0725 - accuracy: 0.4043 -
…
4 | 0.442826 | 0.630513 | 0.630709 | 0.434591 | 0.435120 | 2 | LSTM | 8 | 3 | . Train shape: (83399, 3, 3) Test shape: (10292, 3, 3) Train shape: (83399, 3, 3) Test shape: (10292, 3, 3) Train shape: (83399, 8) Test shape: (10292, 8) Model: &#34;Modelo_IFA&#34; __________________________________________________________________________________________________ Layer (type) Output Shape Param # Connected to ================================================================================================== input_1 (InputLayer) [(None, 3, 3)] 0 [] input_2 (InputLayer) [(None, 3, 3)] 0 [] lstm (LSTM) (None, 3, 100) 41200 [&#39;input_1[0][0]&#39;] lstm_1 (LSTM) (None, 3, 100) 41200 [&#39;input_2[0][0]&#39;] reshape (Reshape) (None, 300) 0 [&#39;lstm[0][0]&#39;] reshape_1 (Reshape) (None, 300) 0 [&#39;lstm_1[0][0]&#39;] input_3 (InputLayer) [(None, 8)] 0 [] concatenate (Concatenate) (None, 608) 0 [&#39;reshape[0][0]&#39;, &#39;reshape_1[0][0]&#39;, &#39;input_3[0][0]&#39;] dense (Dense) (None, 500) 304500 [&#39;concatenate[0][0]&#39;] dropout (Dropout) (None, 500) 0 [&#39;dense[0][0]&#39;] dense_1 (Dense) (None, 200) 100200 [&#39;dropout[0][0]&#39;] dropout_1 (Dropout) (None, 200) 0 [&#39;dense_1[0][0]&#39;] dense_2 (Dense) (None, 80) 16080 [&#39;dropout_1[0][0]&#39;] dropout_2 (Dropout) (None, 80) 0 [&#39;dense_2[0][0]&#39;] dense_3 (Dense) (None, 20) 1620 [&#39;dropout_2[0][0]&#39;] dropout_3 (Dropout) (None, 20) 0 [&#39;dense_3[0][0]&#39;] dense_4 (Dense) (None, 10) 210 [&#39;dropout_3[0][0]&#39;] dense_5 (Dense) (None, 3) 33 [&#39;dense_4[0][0]&#39;] ================================================================================================== Total params: 505,043 Trainable params: 505,043 Non-trainable params: 0 __________________________________________________________________________________________________ Epoch 1/50 188/188 [==============================] - 13s 59ms/step - loss: 1.0753 - accuracy: 0.4095 -
…
5 | 0.446443 | 0.635047 | 0.635598 | 0.436086 | 0.437079 | 3 | LSTM | 8 | 3 | . Train shape: (83399, 4, 3) Test shape: (10292, 4, 3) Train shape: (83399, 4, 3) Test shape: (10292, 4, 3) Train shape: (83399, 8) Test shape: (10292, 8) Model: &#34;Modelo_IFA&#34; __________________________________________________________________________________________________ Layer (type) Output Shape Param # Connected to ================================================================================================== input_1 (InputLayer) [(None, 4, 3)] 0 [] input_2 (InputLayer) [(None, 4, 3)] 0 [] lstm (LSTM) (None, 4, 100) 41200 [&#39;input_1[0][0]&#39;] lstm_1 (LSTM) (None, 4, 100) 41200 [&#39;input_2[0][0]&#39;] reshape (Reshape) (None, 400) 0 [&#39;lstm[0][0]&#39;] reshape_1 (Reshape) (None, 400) 0 [&#39;lstm_1[0][0]&#39;] input_3 (InputLayer) [(None, 8)] 0 [] concatenate (Concatenate) (None, 808) 0 [&#39;reshape[0][0]&#39;, &#39;reshape_1[0][0]&#39;, &#39;input_3[0][0]&#39;] dense (Dense) (None, 500) 404500 [&#39;concatenate[0][0]&#39;] dropout (Dropout) (None, 500) 0 [&#39;dense[0][0]&#39;] dense_1 (Dense) (None, 200) 100200 [&#39;dropout[0][0]&#39;] dropout_1 (Dropout) (None, 200) 0 [&#39;dense_1[0][0]&#39;] dense_2 (Dense) (None, 80) 16080 [&#39;dropout_1[0][0]&#39;] dropout_2 (Dropout) (None, 80) 0 [&#39;dense_2[0][0]&#39;] dense_3 (Dense) (None, 20) 1620 [&#39;dropout_2[0][0]&#39;] dropout_3 (Dropout) (None, 20) 0 [&#39;dense_3[0][0]&#39;] dense_4 (Dense) (None, 10) 210 [&#39;dropout_3[0][0]&#39;] dense_5 (Dense) (None, 3) 33 [&#39;dense_4[0][0]&#39;] ================================================================================================== Total params: 605,043 Trainable params: 605,043 Non-trainable params: 0 __________________________________________________________________________________________________ Epoch 1/50 188/188 [==============================] - 17s 77ms/step - loss: 1.0742 - accuracy: 0.4143 -
…
9 | 0.447668 | 0.635884 | 0.635908 | 0.441845 | 0.442506 | 4 | LSTM | 8 | 3 | . Train shape: (83399, 5, 3) Test shape: (10292, 5, 3) Train shape: (83399, 5, 3) Test shape: (10292, 5, 3) Train shape: (83399, 8) Test shape: (10292, 8) Model: &#34;Modelo_IFA&#34; __________________________________________________________________________________________________ Layer (type) Output Shape Param # Connected to ================================================================================================== input_1 (InputLayer) [(None, 5, 3)] 0 [] input_2 (InputLayer) [(None, 5, 3)] 0 [] lstm (LSTM) (None, 5, 100) 41200 [&#39;input_1[0][0]&#39;] lstm_1 (LSTM) (None, 5, 100) 41200 [&#39;input_2[0][0]&#39;] reshape (Reshape) (None, 500) 0 [&#39;lstm[0][0]&#39;] reshape_1 (Reshape) (None, 500) 0 [&#39;lstm_1[0][0]&#39;] input_3 (InputLayer) [(None, 8)] 0 [] concatenate (Concatenate) (None, 1008) 0 [&#39;reshape[0][0]&#39;, &#39;reshape_1[0][0]&#39;, &#39;input_3[0][0]&#39;] dense (Dense) (None, 500) 504500 [&#39;concatenate[0][0]&#39;] dropout (Dropout) (None, 500) 0 [&#39;dense[0][0]&#39;] dense_1 (Dense) (None, 200) 100200 [&#39;dropout[0][0]&#39;] dropout_1 (Dropout) (None, 200) 0 [&#39;dense_1[0][0]&#39;] dense_2 (Dense) (None, 80) 16080 [&#39;dropout_1[0][0]&#39;] dropout_2 (Dropout) (None, 80) 0 [&#39;dense_2[0][0]&#39;] dense_3 (Dense) (None, 20) 1620 [&#39;dropout_2[0][0]&#39;] dropout_3 (Dropout) (None, 20) 0 [&#39;dense_3[0][0]&#39;] dense_4 (Dense) (None, 10) 210 [&#39;dropout_3[0][0]&#39;] dense_5 (Dense) (None, 3) 33 [&#39;dense_4[0][0]&#39;] ================================================================================================== Total params: 705,043 Trainable params: 705,043 Non-trainable params: 0 __________________________________________________________________________________________________ Epoch 1/50 188/188 [==============================] - 23s 103ms/step - loss: 1.0756 - accuracy: 0.4240 
…
7 | 0.448648 | 0.637872 | 0.637953 | 0.439653 | 0.440383 | 5 | LSTM | 8 | 3 | . Train shape: (83399, 6, 3) Test shape: (10292, 6, 3) Train shape: (83399, 6, 3) Test shape: (10292, 6, 3) Train shape: (83399, 8) Test shape: (10292, 8) Model: &#34;Modelo_IFA&#34; __________________________________________________________________________________________________ Layer (type) Output Shape Param # Connected to ================================================================================================== input_1 (InputLayer) [(None, 6, 3)] 0 [] input_2 (InputLayer) [(None, 6, 3)] 0 [] lstm (LSTM) (None, 6, 100) 41200 [&#39;input_1[0][0]&#39;] lstm_1 (LSTM) (None, 6, 100) 41200 [&#39;input_2[0][0]&#39;] reshape (Reshape) (None, 600) 0 [&#39;lstm[0][0]&#39;] reshape_1 (Reshape) (None, 600) 0 [&#39;lstm_1[0][0]&#39;] input_3 (InputLayer) [(None, 8)] 0 [] concatenate (Concatenate) (None, 1208) 0 [&#39;reshape[0][0]&#39;, &#39;reshape_1[0][0]&#39;, &#39;input_3[0][0]&#39;] dense (Dense) (None, 500) 604500 [&#39;concatenate[0][0]&#39;] dropout (Dropout) (None, 500) 0 [&#39;dense[0][0]&#39;] dense_1 (Dense) (None, 200) 100200 [&#39;dropout[0][0]&#39;] dropout_1 (Dropout) (None, 200) 0 [&#39;dense_1[0][0]&#39;] dense_2 (Dense) (None, 80) 16080 [&#39;dropout_1[0][0]&#39;] dropout_2 (Dropout) (None, 80) 0 [&#39;dense_2[0][0]&#39;] dense_3 (Dense) (None, 20) 1620 [&#39;dropout_2[0][0]&#39;] dropout_3 (Dropout) (None, 20) 0 [&#39;dense_3[0][0]&#39;] dense_4 (Dense) (None, 10) 210 [&#39;dropout_3[0][0]&#39;] dense_5 (Dense) (None, 3) 33 [&#39;dense_4[0][0]&#39;] ================================================================================================== Total params: 805,043 Trainable params: 805,043 Non-trainable params: 0 __________________________________________________________________________________________________ Epoch 1/50 188/188 [==============================] - 25s 110ms/step - loss: 1.0715 - accuracy: 0.4131 
…
8 | 0.454646 | 0.640547 | 0.640675 | 0.441138 | 0.441219 | 6 | LSTM | 8 | 3 | . Train shape: (83399, 7, 3) Test shape: (10292, 7, 3) Train shape: (83399, 7, 3) Test shape: (10292, 7, 3) Train shape: (83399, 8) Test shape: (10292, 8) Model: &#34;Modelo_IFA&#34; __________________________________________________________________________________________________ Layer (type) Output Shape Param # Connected to ================================================================================================== input_1 (InputLayer) [(None, 7, 3)] 0 [] input_2 (InputLayer) [(None, 7, 3)] 0 [] lstm (LSTM) (None, 7, 100) 41200 [&#39;input_1[0][0]&#39;] lstm_1 (LSTM) (None, 7, 100) 41200 [&#39;input_2[0][0]&#39;] reshape (Reshape) (None, 700) 0 [&#39;lstm[0][0]&#39;] reshape_1 (Reshape) (None, 700) 0 [&#39;lstm_1[0][0]&#39;] input_3 (InputLayer) [(None, 8)] 0 [] concatenate (Concatenate) (None, 1408) 0 [&#39;reshape[0][0]&#39;, &#39;reshape_1[0][0]&#39;, &#39;input_3[0][0]&#39;] dense (Dense) (None, 500) 704500 [&#39;concatenate[0][0]&#39;] dropout (Dropout) (None, 500) 0 [&#39;dense[0][0]&#39;] dense_1 (Dense) (None, 200) 100200 [&#39;dropout[0][0]&#39;] dropout_1 (Dropout) (None, 200) 0 [&#39;dense_1[0][0]&#39;] dense_2 (Dense) (None, 80) 16080 [&#39;dropout_1[0][0]&#39;] dropout_2 (Dropout) (None, 80) 0 [&#39;dense_2[0][0]&#39;] dense_3 (Dense) (None, 20) 1620 [&#39;dropout_2[0][0]&#39;] dropout_3 (Dropout) (None, 20) 0 [&#39;dense_3[0][0]&#39;] dense_4 (Dense) (None, 10) 210 [&#39;dropout_3[0][0]&#39;] dense_5 (Dense) (None, 3) 33 [&#39;dense_4[0][0]&#39;] ================================================================================================== Total params: 905,043 Trainable params: 905,043 Non-trainable params: 0 __________________________________________________________________________________________________ Epoch 1/50 188/188 [==============================] - 28s 127ms/step - loss: 1.0660 - accuracy: 0.4207 
…
4 | 0.453754 | 0.642006 | 0.642063 | 0.440296 | 0.441086 | 7 | LSTM | 8 | 3 | . Train shape: (83399, 8, 3) Test shape: (10292, 8, 3) Train shape: (83399, 8, 3) Test shape: (10292, 8, 3) Train shape: (83399, 8) Test shape: (10292, 8) Model: &#34;Modelo_IFA&#34; __________________________________________________________________________________________________ Layer (type) Output Shape Param # Connected to ================================================================================================== input_1 (InputLayer) [(None, 8, 3)] 0 [] input_2 (InputLayer) [(None, 8, 3)] 0 [] lstm (LSTM) (None, 8, 100) 41200 [&#39;input_1[0][0]&#39;] lstm_1 (LSTM) (None, 8, 100) 41200 [&#39;input_2[0][0]&#39;] reshape (Reshape) (None, 800) 0 [&#39;lstm[0][0]&#39;] reshape_1 (Reshape) (None, 800) 0 [&#39;lstm_1[0][0]&#39;] input_3 (InputLayer) [(None, 8)] 0 [] concatenate (Concatenate) (None, 1608) 0 [&#39;reshape[0][0]&#39;, &#39;reshape_1[0][0]&#39;, &#39;input_3[0][0]&#39;] dense (Dense) (None, 500) 804500 [&#39;concatenate[0][0]&#39;] dropout (Dropout) (None, 500) 0 [&#39;dense[0][0]&#39;] dense_1 (Dense) (None, 200) 100200 [&#39;dropout[0][0]&#39;] dropout_1 (Dropout) (None, 200) 0 [&#39;dense_1[0][0]&#39;] dense_2 (Dense) (None, 80) 16080 [&#39;dropout_1[0][0]&#39;] dropout_2 (Dropout) (None, 80) 0 [&#39;dense_2[0][0]&#39;] dense_3 (Dense) (None, 20) 1620 [&#39;dropout_2[0][0]&#39;] dropout_3 (Dropout) (None, 20) 0 [&#39;dense_3[0][0]&#39;] dense_4 (Dense) (None, 10) 210 [&#39;dropout_3[0][0]&#39;] dense_5 (Dense) (None, 3) 33 [&#39;dense_4[0][0]&#39;] ================================================================================================== Total params: 1,005,043 Trainable params: 1,005,043 Non-trainable params: 0 __________________________________________________________________________________________________ Epoch 1/50 188/188 [==============================] - 32s 142ms/step - loss: 1.0656 - accuracy: 0.4
…
7 | 0.454970 | 0.643039 | 0.642296 | 0.450757 | 0.450540 | 8 | LSTM | 8 | 3 | . Train shape: (83399, 9, 3) Test shape: (10292, 9, 3) Train shape: (83399, 9, 3) Test shape: (10292, 9, 3) Train shape: (83399, 8) Test shape: (10292, 8) Model: &#34;Modelo_IFA&#34; __________________________________________________________________________________________________ Layer (type) Output Shape Param # Connected to ================================================================================================== input_1 (InputLayer) [(None, 9, 3)] 0 [] input_2 (InputLayer) [(None, 9, 3)] 0 [] lstm (LSTM) (None, 9, 100) 41200 [&#39;input_1[0][0]&#39;] lstm_1 (LSTM) (None, 9, 100) 41200 [&#39;input_2[0][0]&#39;] reshape (Reshape) (None, 900) 0 [&#39;lstm[0][0]&#39;] reshape_1 (Reshape) (None, 900) 0 [&#39;lstm_1[0][0]&#39;] input_3 (InputLayer) [(None, 8)] 0 [] concatenate (Concatenate) (None, 1808) 0 [&#39;reshape[0][0]&#39;, &#39;reshape_1[0][0]&#39;, &#39;input_3[0][0]&#39;] dense (Dense) (None, 500) 904500 [&#39;concatenate[0][0]&#39;] dropout (Dropout) (None, 500) 0 [&#39;dense[0][0]&#39;] dense_1 (Dense) (None, 200) 100200 [&#39;dropout[0][0]&#39;] dropout_1 (Dropout) (None, 200) 0 [&#39;dense_1[0][0]&#39;] dense_2 (Dense) (None, 80) 16080 [&#39;dropout_1[0][0]&#39;] dropout_2 (Dropout) (None, 80) 0 [&#39;dense_2[0][0]&#39;] dense_3 (Dense) (None, 20) 1620 [&#39;dropout_2[0][0]&#39;] dropout_3 (Dropout) (None, 20) 0 [&#39;dense_3[0][0]&#39;] dense_4 (Dense) (None, 10) 210 [&#39;dropout_3[0][0]&#39;] dense_5 (Dense) (None, 3) 33 [&#39;dense_4[0][0]&#39;] ================================================================================================== Total params: 1,105,043 Trainable params: 1,105,043 Non-trainable params: 0 __________________________________________________________________________________________________ Epoch 1/50 188/188 [==============================] - 33s 152ms/step - loss: 1.0775 - accuracy: 0.3
…
461428 | 0.648606 | 0.647873 | 0.442060 | 0.441691 | 9 | LSTM | 8 | 3 | . Train shape: (83399, 10, 3) Test shape: (10292, 10, 3) Train shape: (83399, 10, 3) Test shape: (10292, 10, 3) Train shape: (83399, 8) Test shape: (10292, 8) Model: &#34;Modelo_IFA&#34; __________________________________________________________________________________________________ Layer (type) Output Shape Param # Connected to ================================================================================================== input_1 (InputLayer) [(None, 10, 3)] 0 [] input_2 (InputLayer) [(None, 10, 3)] 0 [] lstm (LSTM) (None, 10, 100) 41200 [&#39;input_1[0][0]&#39;] lstm_1 (LSTM) (None, 10, 100) 41200 [&#39;input_2[0][0]&#39;] reshape (Reshape) (None, 1000) 0 [&#39;lstm[0][0]&#39;] reshape_1 (Reshape) (None, 1000) 0 [&#39;lstm_1[0][0]&#39;] input_3 (InputLayer) [(None, 8)] 0 [] concatenate (Concatenate) (None, 2008) 0 [&#39;reshape[0][0]&#39;, &#39;reshape_1[0][0]&#39;, &#39;input_3[0][0]&#39;] dense (Dense) (None, 500) 1004500 [&#39;concatenate[0][0]&#39;] dropout (Dropout) (None, 500) 0 [&#39;dense[0][0]&#39;] dense_1 (Dense) (None, 200) 100200 [&#39;dropout[0][0]&#39;] dropout_1 (Dropout) (None, 200) 0 [&#39;dense_1[0][0]&#39;] dense_2 (Dense) (None, 80) 16080 [&#39;dropout_1[0][0]&#39;] dropout_2 (Dropout) (None, 80) 0 [&#39;dense_2[0][0]&#39;] dense_3 (Dense) (None, 20) 1620 [&#39;dropout_2[0][0]&#39;] dropout_3 (Dropout) (None, 20) 0 [&#39;dense_3[0][0]&#39;] dense_4 (Dense) (None, 10) 210 [&#39;dropout_3[0][0]&#39;] dense_5 (Dense) (None, 3) 33 [&#39;dense_4[0][0]&#39;] ================================================================================================== Total params: 1,205,043 Trainable params: 1,205,043 Non-trainable params: 0 __________________________________________________________________________________________________ Epoch 1/50 188/188 [==============================] - 34s 154ms/step - loss: 1.0668 - accuracy: 0.4
…
 | 0.643891 | 0.643565 | 0.442517 | 0.442524 | 10 | LSTM | 8 | 3 | . Train shape: (83399, 1, 3) Test shape: (10292, 1, 3) Train shape: (83399, 1, 3) Test shape: (10292, 1, 3) Train shape: (83399, 8) Test shape: (10292, 8) Model: &#34;Modelo_IFA&#34; __________________________________________________________________________________________________ Layer (type) Output Shape Param # Connected to ================================================================================================== input_1 (InputLayer) [(None, 1, 3)] 0 [] input_2 (InputLayer) [(None, 1, 3)] 0 [] simple_rnn (SimpleRNN) (None, 1, 100) 10300 [&#39;input_1[0][0]&#39;] simple_rnn_1 (SimpleRNN) (None, 1, 100) 10300 [&#39;input_2[0][0]&#39;] reshape (Reshape) (None, 100) 0 [&#39;simple_rnn[0][0]&#39;] reshape_1 (Reshape) (None, 100) 0 [&#39;simple_rnn_1[0][0]&#39;] input_3 (InputLayer) [(None, 8)] 0 [] concatenate (Concatenate) (None, 208) 0 [&#39;reshape[0][0]&#39;, &#39;reshape_1[0][0]&#39;, &#39;input_3[0][0]&#39;] dense (Dense) (None, 500) 104500 [&#39;concatenate[0][0]&#39;] dropout (Dropout) (None, 500) 0 [&#39;dense[0][0]&#39;] dense_1 (Dense) (None, 200) 100200 [&#39;dropout[0][0]&#39;] dropout_1 (Dropout) (None, 200) 0 [&#39;dense_1[0][0]&#39;] dense_2 (Dense) (None, 80) 16080 [&#39;dropout_1[0][0]&#39;] dropout_2 (Dropout) (None, 80) 0 [&#39;dense_2[0][0]&#39;] dense_3 (Dense) (None, 20) 1620 [&#39;dropout_2[0][0]&#39;] dropout_3 (Dropout) (None, 20) 0 [&#39;dense_3[0][0]&#39;] dense_4 (Dense) (None, 10) 210 [&#39;dropout_3[0][0]&#39;] dense_5 (Dense) (None, 3) 33 [&#39;dense_4[0][0]&#39;] ================================================================================================== Total params: 243,243 Trainable params: 243,243 Non-trainable params: 0 __________________________________________________________________________________________________ Epoch 1/50 188/188 [==============================] - 10s 31ms/step - loss: 1.0761 - accuracy: 0.4047 -
…
 0.418663 | 0.419517 | 1 | Simple | 8 | 3 | . 51 rows × 12 columns . Train shape: (83399, 2, 3) Test shape: (10292, 2, 3) Train shape: (83399, 2, 3) Test shape: (10292, 2, 3) Train shape: (83399, 8) Test shape: (10292, 8) Model: &#34;Modelo_IFA&#34; __________________________________________________________________________________________________ Layer (type) Output Shape Param # Connected to ================================================================================================== input_1 (InputLayer) [(None, 2, 3)] 0 [] input_2 (InputLayer) [(None, 2, 3)] 0 [] simple_rnn (SimpleRNN) (None, 2, 100) 10300 [&#39;input_1[0][0]&#39;] simple_rnn_1 (SimpleRNN) (None, 2, 100) 10300 [&#39;input_2[0][0]&#39;] reshape (Reshape) (None, 200) 0 [&#39;simple_rnn[0][0]&#39;] reshape_1 (Reshape) (None, 200) 0 [&#39;simple_rnn_1[0][0]&#39;] input_3 (InputLayer) [(None, 8)] 0 [] concatenate (Concatenate) (None, 408) 0 [&#39;reshape[0][0]&#39;, &#39;reshape_1[0][0]&#39;, &#39;input_3[0][0]&#39;] dense (Dense) (None, 500) 204500 [&#39;concatenate[0][0]&#39;] dropout (Dropout) (None, 500) 0 [&#39;dense[0][0]&#39;] dense_1 (Dense) (None, 200) 100200 [&#39;dropout[0][0]&#39;] dropout_1 (Dropout) (None, 200) 0 [&#39;dense_1[0][0]&#39;] dense_2 (Dense) (None, 80) 16080 [&#39;dropout_1[0][0]&#39;] dropout_2 (Dropout) (None, 80) 0 [&#39;dense_2[0][0]&#39;] dense_3 (Dense) (None, 20) 1620 [&#39;dropout_2[0][0]&#39;] dropout_3 (Dropout) (None, 20) 0 [&#39;dense_3[0][0]&#39;] dense_4 (Dense) (None, 10) 210 [&#39;dropout_3[0][0]&#39;] dense_5 (Dense) (None, 3) 33 [&#39;dense_4[0][0]&#39;] ================================================================================================== Total params: 343,243 Trainable params: 343,243 Non-trainable params: 0 __________________________________________________________________________________________________ Epoch 1/50 188/188 [==============================] - 11s 39ms/step - loss: 1.0883 - accuracy: 0.3751 -
…
 0.434007 | 0.434173 | 2 | Simple | 8 | 3 | . 52 rows × 12 columns . Train shape: (83399, 3, 3) Test shape: (10292, 3, 3) Train shape: (83399, 3, 3) Test shape: (10292, 3, 3) Train shape: (83399, 8) Test shape: (10292, 8) Model: &#34;Modelo_IFA&#34; __________________________________________________________________________________________________ Layer (type) Output Shape Param # Connected to ================================================================================================== input_1 (InputLayer) [(None, 3, 3)] 0 [] input_2 (InputLayer) [(None, 3, 3)] 0 [] simple_rnn (SimpleRNN) (None, 3, 100) 10300 [&#39;input_1[0][0]&#39;] simple_rnn_1 (SimpleRNN) (None, 3, 100) 10300 [&#39;input_2[0][0]&#39;] reshape (Reshape) (None, 300) 0 [&#39;simple_rnn[0][0]&#39;] reshape_1 (Reshape) (None, 300) 0 [&#39;simple_rnn_1[0][0]&#39;] input_3 (InputLayer) [(None, 8)] 0 [] concatenate (Concatenate) (None, 608) 0 [&#39;reshape[0][0]&#39;, &#39;reshape_1[0][0]&#39;, &#39;input_3[0][0]&#39;] dense (Dense) (None, 500) 304500 [&#39;concatenate[0][0]&#39;] dropout (Dropout) (None, 500) 0 [&#39;dense[0][0]&#39;] dense_1 (Dense) (None, 200) 100200 [&#39;dropout[0][0]&#39;] dropout_1 (Dropout) (None, 200) 0 [&#39;dense_1[0][0]&#39;] dense_2 (Dense) (None, 80) 16080 [&#39;dropout_1[0][0]&#39;] dropout_2 (Dropout) (None, 80) 0 [&#39;dense_2[0][0]&#39;] dense_3 (Dense) (None, 20) 1620 [&#39;dropout_2[0][0]&#39;] dropout_3 (Dropout) (None, 20) 0 [&#39;dense_3[0][0]&#39;] dense_4 (Dense) (None, 10) 210 [&#39;dropout_3[0][0]&#39;] dense_5 (Dense) (None, 3) 33 [&#39;dense_4[0][0]&#39;] ================================================================================================== Total params: 443,243 Trainable params: 443,243 Non-trainable params: 0 __________________________________________________________________________________________________ Epoch 1/50 188/188 [==============================] - 16s 58ms/step - loss: 1.0919 - accuracy: 0.3578 -
…
 0.431140 | 0.431641 | 3 | Simple | 8 | 3 | . 53 rows × 12 columns . Train shape: (83399, 4, 3) Test shape: (10292, 4, 3) Train shape: (83399, 4, 3) Test shape: (10292, 4, 3) Train shape: (83399, 8) Test shape: (10292, 8) Model: &#34;Modelo_IFA&#34; __________________________________________________________________________________________________ Layer (type) Output Shape Param # Connected to ================================================================================================== input_1 (InputLayer) [(None, 4, 3)] 0 [] input_2 (InputLayer) [(None, 4, 3)] 0 [] simple_rnn (SimpleRNN) (None, 4, 100) 10300 [&#39;input_1[0][0]&#39;] simple_rnn_1 (SimpleRNN) (None, 4, 100) 10300 [&#39;input_2[0][0]&#39;] reshape (Reshape) (None, 400) 0 [&#39;simple_rnn[0][0]&#39;] reshape_1 (Reshape) (None, 400) 0 [&#39;simple_rnn_1[0][0]&#39;] input_3 (InputLayer) [(None, 8)] 0 [] concatenate (Concatenate) (None, 808) 0 [&#39;reshape[0][0]&#39;, &#39;reshape_1[0][0]&#39;, &#39;input_3[0][0]&#39;] dense (Dense) (None, 500) 404500 [&#39;concatenate[0][0]&#39;] dropout (Dropout) (None, 500) 0 [&#39;dense[0][0]&#39;] dense_1 (Dense) (None, 200) 100200 [&#39;dropout[0][0]&#39;] dropout_1 (Dropout) (None, 200) 0 [&#39;dense_1[0][0]&#39;] dense_2 (Dense) (None, 80) 16080 [&#39;dropout_1[0][0]&#39;] dropout_2 (Dropout) (None, 80) 0 [&#39;dense_2[0][0]&#39;] dense_3 (Dense) (None, 20) 1620 [&#39;dropout_2[0][0]&#39;] dropout_3 (Dropout) (None, 20) 0 [&#39;dense_3[0][0]&#39;] dense_4 (Dense) (None, 10) 210 [&#39;dropout_3[0][0]&#39;] dense_5 (Dense) (None, 3) 33 [&#39;dense_4[0][0]&#39;] ================================================================================================== Total params: 543,243 Trainable params: 543,243 Non-trainable params: 0 __________________________________________________________________________________________________ Epoch 1/50 188/188 [==============================] - 14s 53ms/step - loss: 1.0838 - accuracy: 0.3907 -
…
 0.453959 | 0.453127 | 4 | Simple | 8 | 3 | . 54 rows × 12 columns . Train shape: (83399, 5, 3) Test shape: (10292, 5, 3) Train shape: (83399, 5, 3) Test shape: (10292, 5, 3) Train shape: (83399, 8) Test shape: (10292, 8) Model: &#34;Modelo_IFA&#34; __________________________________________________________________________________________________ Layer (type) Output Shape Param # Connected to ================================================================================================== input_1 (InputLayer) [(None, 5, 3)] 0 [] input_2 (InputLayer) [(None, 5, 3)] 0 [] simple_rnn (SimpleRNN) (None, 5, 100) 10300 [&#39;input_1[0][0]&#39;] simple_rnn_1 (SimpleRNN) (None, 5, 100) 10300 [&#39;input_2[0][0]&#39;] reshape (Reshape) (None, 500) 0 [&#39;simple_rnn[0][0]&#39;] reshape_1 (Reshape) (None, 500) 0 [&#39;simple_rnn_1[0][0]&#39;] input_3 (InputLayer) [(None, 8)] 0 [] concatenate (Concatenate) (None, 1008) 0 [&#39;reshape[0][0]&#39;, &#39;reshape_1[0][0]&#39;, &#39;input_3[0][0]&#39;] dense (Dense) (None, 500) 504500 [&#39;concatenate[0][0]&#39;] dropout (Dropout) (None, 500) 0 [&#39;dense[0][0]&#39;] dense_1 (Dense) (None, 200) 100200 [&#39;dropout[0][0]&#39;] dropout_1 (Dropout) (None, 200) 0 [&#39;dense_1[0][0]&#39;] dense_2 (Dense) (None, 80) 16080 [&#39;dropout_1[0][0]&#39;] dropout_2 (Dropout) (None, 80) 0 [&#39;dense_2[0][0]&#39;] dense_3 (Dense) (None, 20) 1620 [&#39;dropout_2[0][0]&#39;] dropout_3 (Dropout) (None, 20) 0 [&#39;dense_3[0][0]&#39;] dense_4 (Dense) (None, 10) 210 [&#39;dropout_3[0][0]&#39;] dense_5 (Dense) (None, 3) 33 [&#39;dense_4[0][0]&#39;] ================================================================================================== Total params: 643,243 Trainable params: 643,243 Non-trainable params: 0 __________________________________________________________________________________________________ Epoch 1/50 188/188 [==============================] - 17s 63ms/step - loss: 1.0839 - accuracy: 0.3912 -
…
 0.431301 | 0.431733 | 5 | Simple | 8 | 3 | . 55 rows × 12 columns . Train shape: (83399, 6, 3) Test shape: (10292, 6, 3) Train shape: (83399, 6, 3) Test shape: (10292, 6, 3) Train shape: (83399, 8) Test shape: (10292, 8) Model: &#34;Modelo_IFA&#34; __________________________________________________________________________________________________ Layer (type) Output Shape Param # Connected to ================================================================================================== input_1 (InputLayer) [(None, 6, 3)] 0 [] input_2 (InputLayer) [(None, 6, 3)] 0 [] simple_rnn (SimpleRNN) (None, 6, 100) 10300 [&#39;input_1[0][0]&#39;] simple_rnn_1 (SimpleRNN) (None, 6, 100) 10300 [&#39;input_2[0][0]&#39;] reshape (Reshape) (None, 600) 0 [&#39;simple_rnn[0][0]&#39;] reshape_1 (Reshape) (None, 600) 0 [&#39;simple_rnn_1[0][0]&#39;] input_3 (InputLayer) [(None, 8)] 0 [] concatenate (Concatenate) (None, 1208) 0 [&#39;reshape[0][0]&#39;, &#39;reshape_1[0][0]&#39;, &#39;input_3[0][0]&#39;] dense (Dense) (None, 500) 604500 [&#39;concatenate[0][0]&#39;] dropout (Dropout) (None, 500) 0 [&#39;dense[0][0]&#39;] dense_1 (Dense) (None, 200) 100200 [&#39;dropout[0][0]&#39;] dropout_1 (Dropout) (None, 200) 0 [&#39;dense_1[0][0]&#39;] dense_2 (Dense) (None, 80) 16080 [&#39;dropout_1[0][0]&#39;] dropout_2 (Dropout) (None, 80) 0 [&#39;dense_2[0][0]&#39;] dense_3 (Dense) (None, 20) 1620 [&#39;dropout_2[0][0]&#39;] dropout_3 (Dropout) (None, 20) 0 [&#39;dense_3[0][0]&#39;] dense_4 (Dense) (None, 10) 210 [&#39;dropout_3[0][0]&#39;] dense_5 (Dense) (None, 3) 33 [&#39;dense_4[0][0]&#39;] ================================================================================================== Total params: 743,243 Trainable params: 743,243 Non-trainable params: 0 __________________________________________________________________________________________________ Epoch 1/50 188/188 [==============================] - 14s 61ms/step - loss: 1.0877 - accuracy: 0.3638 -
…
 0.446376 | 0.446102 | 6 | Simple | 8 | 3 | . 56 rows × 12 columns . Train shape: (83399, 7, 3) Test shape: (10292, 7, 3) Train shape: (83399, 7, 3) Test shape: (10292, 7, 3) Train shape: (83399, 8) Test shape: (10292, 8) Model: &#34;Modelo_IFA&#34; __________________________________________________________________________________________________ Layer (type) Output Shape Param # Connected to ================================================================================================== input_1 (InputLayer) [(None, 7, 3)] 0 [] input_2 (InputLayer) [(None, 7, 3)] 0 [] simple_rnn (SimpleRNN) (None, 7, 100) 10300 [&#39;input_1[0][0]&#39;] simple_rnn_1 (SimpleRNN) (None, 7, 100) 10300 [&#39;input_2[0][0]&#39;] reshape (Reshape) (None, 700) 0 [&#39;simple_rnn[0][0]&#39;] reshape_1 (Reshape) (None, 700) 0 [&#39;simple_rnn_1[0][0]&#39;] input_3 (InputLayer) [(None, 8)] 0 [] concatenate (Concatenate) (None, 1408) 0 [&#39;reshape[0][0]&#39;, &#39;reshape_1[0][0]&#39;, &#39;input_3[0][0]&#39;] dense (Dense) (None, 500) 704500 [&#39;concatenate[0][0]&#39;] dropout (Dropout) (None, 500) 0 [&#39;dense[0][0]&#39;] dense_1 (Dense) (None, 200) 100200 [&#39;dropout[0][0]&#39;] dropout_1 (Dropout) (None, 200) 0 [&#39;dense_1[0][0]&#39;] dense_2 (Dense) (None, 80) 16080 [&#39;dropout_1[0][0]&#39;] dropout_2 (Dropout) (None, 80) 0 [&#39;dense_2[0][0]&#39;] dense_3 (Dense) (None, 20) 1620 [&#39;dropout_2[0][0]&#39;] dropout_3 (Dropout) (None, 20) 0 [&#39;dense_3[0][0]&#39;] dense_4 (Dense) (None, 10) 210 [&#39;dropout_3[0][0]&#39;] dense_5 (Dense) (None, 3) 33 [&#39;dense_4[0][0]&#39;] ================================================================================================== Total params: 843,243 Trainable params: 843,243 Non-trainable params: 0 __________________________________________________________________________________________________ Epoch 1/50 188/188 [==============================] - 16s 68ms/step - loss: 1.0830 - accuracy: 0.3927 -
…
 0.447286 | 0.445852 | 7 | Simple | 8 | 3 | . 57 rows × 12 columns . Train shape: (83399, 8, 3) Test shape: (10292, 8, 3) Train shape: (83399, 8, 3) Test shape: (10292, 8, 3) Train shape: (83399, 8) Test shape: (10292, 8) Model: &#34;Modelo_IFA&#34; __________________________________________________________________________________________________ Layer (type) Output Shape Param # Connected to ================================================================================================== input_1 (InputLayer) [(None, 8, 3)] 0 [] input_2 (InputLayer) [(None, 8, 3)] 0 [] simple_rnn (SimpleRNN) (None, 8, 100) 10300 [&#39;input_1[0][0]&#39;] simple_rnn_1 (SimpleRNN) (None, 8, 100) 10300 [&#39;input_2[0][0]&#39;] reshape (Reshape) (None, 800) 0 [&#39;simple_rnn[0][0]&#39;] reshape_1 (Reshape) (None, 800) 0 [&#39;simple_rnn_1[0][0]&#39;] input_3 (InputLayer) [(None, 8)] 0 [] concatenate (Concatenate) (None, 1608) 0 [&#39;reshape[0][0]&#39;, &#39;reshape_1[0][0]&#39;, &#39;input_3[0][0]&#39;] dense (Dense) (None, 500) 804500 [&#39;concatenate[0][0]&#39;] dropout (Dropout) (None, 500) 0 [&#39;dense[0][0]&#39;] dense_1 (Dense) (None, 200) 100200 [&#39;dropout[0][0]&#39;] dropout_1 (Dropout) (None, 200) 0 [&#39;dense_1[0][0]&#39;] dense_2 (Dense) (None, 80) 16080 [&#39;dropout_1[0][0]&#39;] dropout_2 (Dropout) (None, 80) 0 [&#39;dense_2[0][0]&#39;] dense_3 (Dense) (None, 20) 1620 [&#39;dropout_2[0][0]&#39;] dropout_3 (Dropout) (None, 20) 0 [&#39;dense_3[0][0]&#39;] dense_4 (Dense) (None, 10) 210 [&#39;dropout_3[0][0]&#39;] dense_5 (Dense) (None, 3) 33 [&#39;dense_4[0][0]&#39;] ================================================================================================== Total params: 943,243 Trainable params: 943,243 Non-trainable params: 0 __________________________________________________________________________________________________ Epoch 1/50 188/188 [==============================] - 19s 85ms/step - loss: 1.0813 - accuracy: 0.3921 -
…
 0.452011 | 0.450682 | 8 | Simple | 8 | 3 | . 58 rows × 12 columns . Train shape: (83399, 9, 3) Test shape: (10292, 9, 3) Train shape: (83399, 9, 3) Test shape: (10292, 9, 3) Train shape: (83399, 8) Test shape: (10292, 8) Model: &#34;Modelo_IFA&#34; __________________________________________________________________________________________________ Layer (type) Output Shape Param # Connected to ================================================================================================== input_1 (InputLayer) [(None, 9, 3)] 0 [] input_2 (InputLayer) [(None, 9, 3)] 0 [] simple_rnn (SimpleRNN) (None, 9, 100) 10300 [&#39;input_1[0][0]&#39;] simple_rnn_1 (SimpleRNN) (None, 9, 100) 10300 [&#39;input_2[0][0]&#39;] reshape (Reshape) (None, 900) 0 [&#39;simple_rnn[0][0]&#39;] reshape_1 (Reshape) (None, 900) 0 [&#39;simple_rnn_1[0][0]&#39;] input_3 (InputLayer) [(None, 8)] 0 [] concatenate (Concatenate) (None, 1808) 0 [&#39;reshape[0][0]&#39;, &#39;reshape_1[0][0]&#39;, &#39;input_3[0][0]&#39;] dense (Dense) (None, 500) 904500 [&#39;concatenate[0][0]&#39;] dropout (Dropout) (None, 500) 0 [&#39;dense[0][0]&#39;] dense_1 (Dense) (None, 200) 100200 [&#39;dropout[0][0]&#39;] dropout_1 (Dropout) (None, 200) 0 [&#39;dense_1[0][0]&#39;] dense_2 (Dense) (None, 80) 16080 [&#39;dropout_1[0][0]&#39;] dropout_2 (Dropout) (None, 80) 0 [&#39;dense_2[0][0]&#39;] dense_3 (Dense) (None, 20) 1620 [&#39;dropout_2[0][0]&#39;] dropout_3 (Dropout) (None, 20) 0 [&#39;dense_3[0][0]&#39;] dense_4 (Dense) (None, 10) 210 [&#39;dropout_3[0][0]&#39;] dense_5 (Dense) (None, 3) 33 [&#39;dense_4[0][0]&#39;] ================================================================================================== Total params: 1,043,243 Trainable params: 1,043,243 Non-trainable params: 0 __________________________________________________________________________________________________ Epoch 1/50 188/188 [==============================] - 18s 81ms/step - loss: 1.0883 - accuracy: 0.38
…
947 | 0.453487 | 9 | Simple | 8 | 3 | . 59 rows × 12 columns . Train shape: (83399, 10, 3) Test shape: (10292, 10, 3) Train shape: (83399, 10, 3) Test shape: (10292, 10, 3) Train shape: (83399, 8) Test shape: (10292, 8) Model: &#34;Modelo_IFA&#34; __________________________________________________________________________________________________ Layer (type) Output Shape Param # Connected to ================================================================================================== input_1 (InputLayer) [(None, 10, 3)] 0 [] input_2 (InputLayer) [(None, 10, 3)] 0 [] simple_rnn (SimpleRNN) (None, 10, 100) 10300 [&#39;input_1[0][0]&#39;] simple_rnn_1 (SimpleRNN) (None, 10, 100) 10300 [&#39;input_2[0][0]&#39;] reshape (Reshape) (None, 1000) 0 [&#39;simple_rnn[0][0]&#39;] reshape_1 (Reshape) (None, 1000) 0 [&#39;simple_rnn_1[0][0]&#39;] input_3 (InputLayer) [(None, 8)] 0 [] concatenate (Concatenate) (None, 2008) 0 [&#39;reshape[0][0]&#39;, &#39;reshape_1[0][0]&#39;, &#39;input_3[0][0]&#39;] dense (Dense) (None, 500) 1004500 [&#39;concatenate[0][0]&#39;] dropout (Dropout) (None, 500) 0 [&#39;dense[0][0]&#39;] dense_1 (Dense) (None, 200) 100200 [&#39;dropout[0][0]&#39;] dropout_1 (Dropout) (None, 200) 0 [&#39;dense_1[0][0]&#39;] dense_2 (Dense) (None, 80) 16080 [&#39;dropout_1[0][0]&#39;] dropout_2 (Dropout) (None, 80) 0 [&#39;dense_2[0][0]&#39;] dense_3 (Dense) (None, 20) 1620 [&#39;dropout_2[0][0]&#39;] dropout_3 (Dropout) (None, 20) 0 [&#39;dense_3[0][0]&#39;] dense_4 (Dense) (None, 10) 210 [&#39;dropout_3[0][0]&#39;] dense_5 (Dense) (None, 3) 33 [&#39;dense_4[0][0]&#39;] ================================================================================================== Total params: 1,143,243 Trainable params: 1,143,243 Non-trainable params: 0 __________________________________________________________________________________________________ Epoch 1/50 188/188 [==============================] - 19s 86ms/step - loss: 1.0789 - accuracy: 0.39
…
0.659855 | 0.461930 | 0.459346 | 10 | Simple | 8 | 3 | . 60 rows × 12 columns . Train shape: (83399, 1, 2) Test shape: (10292, 1, 2) Train shape: (83399, 1, 2) Test shape: (10292, 1, 2) Train shape: (83399, 2) Test shape: (10292, 2) Model: &#34;Modelo_IFA&#34; __________________________________________________________________________________________________ Layer (type) Output Shape Param # Connected to ================================================================================================== input_1 (InputLayer) [(None, 1, 2)] 0 [] input_2 (InputLayer) [(None, 1, 2)] 0 [] lstm (LSTM) (None, 1, 100) 40800 [&#39;input_1[0][0]&#39;] lstm_1 (LSTM) (None, 1, 100) 40800 [&#39;input_2[0][0]&#39;] reshape (Reshape) (None, 100) 0 [&#39;lstm[0][0]&#39;] reshape_1 (Reshape) (None, 100) 0 [&#39;lstm_1[0][0]&#39;] input_3 (InputLayer) [(None, 2)] 0 [] concatenate (Concatenate) (None, 202) 0 [&#39;reshape[0][0]&#39;, &#39;reshape_1[0][0]&#39;, &#39;input_3[0][0]&#39;] dense (Dense) (None, 500) 101500 [&#39;concatenate[0][0]&#39;] dropout (Dropout) (None, 500) 0 [&#39;dense[0][0]&#39;] dense_1 (Dense) (None, 200) 100200 [&#39;dropout[0][0]&#39;] dropout_1 (Dropout) (None, 200) 0 [&#39;dense_1[0][0]&#39;] dense_2 (Dense) (None, 80) 16080 [&#39;dropout_1[0][0]&#39;] dropout_2 (Dropout) (None, 80) 0 [&#39;dense_2[0][0]&#39;] dense_3 (Dense) (None, 20) 1620 [&#39;dropout_2[0][0]&#39;] dropout_3 (Dropout) (None, 20) 0 [&#39;dense_3[0][0]&#39;] dense_4 (Dense) (None, 10) 210 [&#39;dropout_3[0][0]&#39;] dense_5 (Dense) (None, 3) 33 [&#39;dense_4[0][0]&#39;] ================================================================================================== Total params: 301,243 Trainable params: 301,243 Non-trainable params: 0 __________________________________________________________________________________________________ Epoch 1/50 188/188 [==============================] - 8s 33ms/step - loss: 1.0915 - accuracy: 0.3633 - 
…
 | 0.576945 | 0.347596 | 0.349436 | 1 | LSTM | 2 | 2 | . 61 rows × 12 columns . Train shape: (83399, 2, 2) Test shape: (10292, 2, 2) Train shape: (83399, 2, 2) Test shape: (10292, 2, 2) Train shape: (83399, 2) Test shape: (10292, 2) Model: &#34;Modelo_IFA&#34; __________________________________________________________________________________________________ Layer (type) Output Shape Param # Connected to ================================================================================================== input_1 (InputLayer) [(None, 2, 2)] 0 [] input_2 (InputLayer) [(None, 2, 2)] 0 [] lstm (LSTM) (None, 2, 100) 40800 [&#39;input_1[0][0]&#39;] lstm_1 (LSTM) (None, 2, 100) 40800 [&#39;input_2[0][0]&#39;] reshape (Reshape) (None, 200) 0 [&#39;lstm[0][0]&#39;] reshape_1 (Reshape) (None, 200) 0 [&#39;lstm_1[0][0]&#39;] input_3 (InputLayer) [(None, 2)] 0 [] concatenate (Concatenate) (None, 402) 0 [&#39;reshape[0][0]&#39;, &#39;reshape_1[0][0]&#39;, &#39;input_3[0][0]&#39;] dense (Dense) (None, 500) 201500 [&#39;concatenate[0][0]&#39;] dropout (Dropout) (None, 500) 0 [&#39;dense[0][0]&#39;] dense_1 (Dense) (None, 200) 100200 [&#39;dropout[0][0]&#39;] dropout_1 (Dropout) (None, 200) 0 [&#39;dense_1[0][0]&#39;] dense_2 (Dense) (None, 80) 16080 [&#39;dropout_1[0][0]&#39;] dropout_2 (Dropout) (None, 80) 0 [&#39;dense_2[0][0]&#39;] dense_3 (Dense) (None, 20) 1620 [&#39;dropout_2[0][0]&#39;] dropout_3 (Dropout) (None, 20) 0 [&#39;dense_3[0][0]&#39;] dense_4 (Dense) (None, 10) 210 [&#39;dropout_3[0][0]&#39;] dense_5 (Dense) (None, 3) 33 [&#39;dense_4[0][0]&#39;] ================================================================================================== Total params: 401,243 Trainable params: 401,243 Non-trainable params: 0 __________________________________________________________________________________________________ Epoch 1/50 188/188 [==============================] - 12s 49ms/step - loss: 1.0843 - accuracy: 0.3947 -
…
 | 0.589968 | 0.404763 | 0.405096 | 2 | LSTM | 2 | 2 | . 62 rows × 12 columns . Train shape: (83399, 3, 2) Test shape: (10292, 3, 2) Train shape: (83399, 3, 2) Test shape: (10292, 3, 2) Train shape: (83399, 2) Test shape: (10292, 2) Model: &#34;Modelo_IFA&#34; __________________________________________________________________________________________________ Layer (type) Output Shape Param # Connected to ================================================================================================== input_1 (InputLayer) [(None, 3, 2)] 0 [] input_2 (InputLayer) [(None, 3, 2)] 0 [] lstm (LSTM) (None, 3, 100) 40800 [&#39;input_1[0][0]&#39;] lstm_1 (LSTM) (None, 3, 100) 40800 [&#39;input_2[0][0]&#39;] reshape (Reshape) (None, 300) 0 [&#39;lstm[0][0]&#39;] reshape_1 (Reshape) (None, 300) 0 [&#39;lstm_1[0][0]&#39;] input_3 (InputLayer) [(None, 2)] 0 [] concatenate (Concatenate) (None, 602) 0 [&#39;reshape[0][0]&#39;, &#39;reshape_1[0][0]&#39;, &#39;input_3[0][0]&#39;] dense (Dense) (None, 500) 301500 [&#39;concatenate[0][0]&#39;] dropout (Dropout) (None, 500) 0 [&#39;dense[0][0]&#39;] dense_1 (Dense) (None, 200) 100200 [&#39;dropout[0][0]&#39;] dropout_1 (Dropout) (None, 200) 0 [&#39;dense_1[0][0]&#39;] dense_2 (Dense) (None, 80) 16080 [&#39;dropout_1[0][0]&#39;] dropout_2 (Dropout) (None, 80) 0 [&#39;dense_2[0][0]&#39;] dense_3 (Dense) (None, 20) 1620 [&#39;dropout_2[0][0]&#39;] dropout_3 (Dropout) (None, 20) 0 [&#39;dense_3[0][0]&#39;] dense_4 (Dense) (None, 10) 210 [&#39;dropout_3[0][0]&#39;] dense_5 (Dense) (None, 3) 33 [&#39;dense_4[0][0]&#39;] ================================================================================================== Total params: 501,243 Trainable params: 501,243 Non-trainable params: 0 __________________________________________________________________________________________________ Epoch 1/50 188/188 [==============================] - 16s 69ms/step - loss: 1.0859 - accuracy: 0.3920 -
…
 | 0.601063 | 0.397879 | 0.399353 | 3 | LSTM | 2 | 2 | . 63 rows × 12 columns . Train shape: (83399, 4, 2) Test shape: (10292, 4, 2) Train shape: (83399, 4, 2) Test shape: (10292, 4, 2) Train shape: (83399, 2) Test shape: (10292, 2) Model: &#34;Modelo_IFA&#34; __________________________________________________________________________________________________ Layer (type) Output Shape Param # Connected to ================================================================================================== input_1 (InputLayer) [(None, 4, 2)] 0 [] input_2 (InputLayer) [(None, 4, 2)] 0 [] lstm (LSTM) (None, 4, 100) 40800 [&#39;input_1[0][0]&#39;] lstm_1 (LSTM) (None, 4, 100) 40800 [&#39;input_2[0][0]&#39;] reshape (Reshape) (None, 400) 0 [&#39;lstm[0][0]&#39;] reshape_1 (Reshape) (None, 400) 0 [&#39;lstm_1[0][0]&#39;] input_3 (InputLayer) [(None, 2)] 0 [] concatenate (Concatenate) (None, 802) 0 [&#39;reshape[0][0]&#39;, &#39;reshape_1[0][0]&#39;, &#39;input_3[0][0]&#39;] dense (Dense) (None, 500) 401500 [&#39;concatenate[0][0]&#39;] dropout (Dropout) (None, 500) 0 [&#39;dense[0][0]&#39;] dense_1 (Dense) (None, 200) 100200 [&#39;dropout[0][0]&#39;] dropout_1 (Dropout) (None, 200) 0 [&#39;dense_1[0][0]&#39;] dense_2 (Dense) (None, 80) 16080 [&#39;dropout_1[0][0]&#39;] dropout_2 (Dropout) (None, 80) 0 [&#39;dense_2[0][0]&#39;] dense_3 (Dense) (None, 20) 1620 [&#39;dropout_2[0][0]&#39;] dropout_3 (Dropout) (None, 20) 0 [&#39;dense_3[0][0]&#39;] dense_4 (Dense) (None, 10) 210 [&#39;dropout_3[0][0]&#39;] dense_5 (Dense) (None, 3) 33 [&#39;dense_4[0][0]&#39;] ================================================================================================== Total params: 601,243 Trainable params: 601,243 Non-trainable params: 0 __________________________________________________________________________________________________ Epoch 1/50 188/188 [==============================] - 19s 77ms/step - loss: 1.0807 - accuracy: 0.4000 -
…
 | 0.609166 | 0.395096 | 0.396718 | 4 | LSTM | 2 | 2 | . 64 rows × 12 columns . Train shape: (83399, 5, 2) Test shape: (10292, 5, 2) Train shape: (83399, 5, 2) Test shape: (10292, 5, 2) Train shape: (83399, 2) Test shape: (10292, 2) Model: &#34;Modelo_IFA&#34; __________________________________________________________________________________________________ Layer (type) Output Shape Param # Connected to ================================================================================================== input_1 (InputLayer) [(None, 5, 2)] 0 [] input_2 (InputLayer) [(None, 5, 2)] 0 [] lstm (LSTM) (None, 5, 100) 40800 [&#39;input_1[0][0]&#39;] lstm_1 (LSTM) (None, 5, 100) 40800 [&#39;input_2[0][0]&#39;] reshape (Reshape) (None, 500) 0 [&#39;lstm[0][0]&#39;] reshape_1 (Reshape) (None, 500) 0 [&#39;lstm_1[0][0]&#39;] input_3 (InputLayer) [(None, 2)] 0 [] concatenate (Concatenate) (None, 1002) 0 [&#39;reshape[0][0]&#39;, &#39;reshape_1[0][0]&#39;, &#39;input_3[0][0]&#39;] dense (Dense) (None, 500) 501500 [&#39;concatenate[0][0]&#39;] dropout (Dropout) (None, 500) 0 [&#39;dense[0][0]&#39;] dense_1 (Dense) (None, 200) 100200 [&#39;dropout[0][0]&#39;] dropout_1 (Dropout) (None, 200) 0 [&#39;dense_1[0][0]&#39;] dense_2 (Dense) (None, 80) 16080 [&#39;dropout_1[0][0]&#39;] dropout_2 (Dropout) (None, 80) 0 [&#39;dense_2[0][0]&#39;] dense_3 (Dense) (None, 20) 1620 [&#39;dropout_2[0][0]&#39;] dropout_3 (Dropout) (None, 20) 0 [&#39;dense_3[0][0]&#39;] dense_4 (Dense) (None, 10) 210 [&#39;dropout_3[0][0]&#39;] dense_5 (Dense) (None, 3) 33 [&#39;dense_4[0][0]&#39;] ================================================================================================== Total params: 701,243 Trainable params: 701,243 Non-trainable params: 0 __________________________________________________________________________________________________ Epoch 1/50 188/188 [==============================] - 22s 100ms/step - loss: 1.0908 - accuracy: 0.3797 
…
 | 0.615413 | 0.422091 | 0.422747 | 5 | LSTM | 2 | 2 | . 65 rows × 12 columns . Train shape: (83399, 6, 2) Test shape: (10292, 6, 2) Train shape: (83399, 6, 2) Test shape: (10292, 6, 2) Train shape: (83399, 2) Test shape: (10292, 2) Model: &#34;Modelo_IFA&#34; __________________________________________________________________________________________________ Layer (type) Output Shape Param # Connected to ================================================================================================== input_1 (InputLayer) [(None, 6, 2)] 0 [] input_2 (InputLayer) [(None, 6, 2)] 0 [] lstm (LSTM) (None, 6, 100) 40800 [&#39;input_1[0][0]&#39;] lstm_1 (LSTM) (None, 6, 100) 40800 [&#39;input_2[0][0]&#39;] reshape (Reshape) (None, 600) 0 [&#39;lstm[0][0]&#39;] reshape_1 (Reshape) (None, 600) 0 [&#39;lstm_1[0][0]&#39;] input_3 (InputLayer) [(None, 2)] 0 [] concatenate (Concatenate) (None, 1202) 0 [&#39;reshape[0][0]&#39;, &#39;reshape_1[0][0]&#39;, &#39;input_3[0][0]&#39;] dense (Dense) (None, 500) 601500 [&#39;concatenate[0][0]&#39;] dropout (Dropout) (None, 500) 0 [&#39;dense[0][0]&#39;] dense_1 (Dense) (None, 200) 100200 [&#39;dropout[0][0]&#39;] dropout_1 (Dropout) (None, 200) 0 [&#39;dense_1[0][0]&#39;] dense_2 (Dense) (None, 80) 16080 [&#39;dropout_1[0][0]&#39;] dropout_2 (Dropout) (None, 80) 0 [&#39;dense_2[0][0]&#39;] dense_3 (Dense) (None, 20) 1620 [&#39;dropout_2[0][0]&#39;] dropout_3 (Dropout) (None, 20) 0 [&#39;dense_3[0][0]&#39;] dense_4 (Dense) (None, 10) 210 [&#39;dropout_3[0][0]&#39;] dense_5 (Dense) (None, 3) 33 [&#39;dense_4[0][0]&#39;] ================================================================================================== Total params: 801,243 Trainable params: 801,243 Non-trainable params: 0 __________________________________________________________________________________________________ Epoch 1/50 188/188 [==============================] - 25s 113ms/step - loss: 1.0778 - accuracy: 0.4059 
…
 | 0.617832 | 0.430306 | 0.430218 | 6 | LSTM | 2 | 2 | . 66 rows × 12 columns . Train shape: (83399, 7, 2) Test shape: (10292, 7, 2) Train shape: (83399, 7, 2) Test shape: (10292, 7, 2) Train shape: (83399, 2) Test shape: (10292, 2) Model: &#34;Modelo_IFA&#34; __________________________________________________________________________________________________ Layer (type) Output Shape Param # Connected to ================================================================================================== input_1 (InputLayer) [(None, 7, 2)] 0 [] input_2 (InputLayer) [(None, 7, 2)] 0 [] lstm (LSTM) (None, 7, 100) 40800 [&#39;input_1[0][0]&#39;] lstm_1 (LSTM) (None, 7, 100) 40800 [&#39;input_2[0][0]&#39;] reshape (Reshape) (None, 700) 0 [&#39;lstm[0][0]&#39;] reshape_1 (Reshape) (None, 700) 0 [&#39;lstm_1[0][0]&#39;] input_3 (InputLayer) [(None, 2)] 0 [] concatenate (Concatenate) (None, 1402) 0 [&#39;reshape[0][0]&#39;, &#39;reshape_1[0][0]&#39;, &#39;input_3[0][0]&#39;] dense (Dense) (None, 500) 701500 [&#39;concatenate[0][0]&#39;] dropout (Dropout) (None, 500) 0 [&#39;dense[0][0]&#39;] dense_1 (Dense) (None, 200) 100200 [&#39;dropout[0][0]&#39;] dropout_1 (Dropout) (None, 200) 0 [&#39;dense_1[0][0]&#39;] dense_2 (Dense) (None, 80) 16080 [&#39;dropout_1[0][0]&#39;] dropout_2 (Dropout) (None, 80) 0 [&#39;dense_2[0][0]&#39;] dense_3 (Dense) (None, 20) 1620 [&#39;dropout_2[0][0]&#39;] dropout_3 (Dropout) (None, 20) 0 [&#39;dense_3[0][0]&#39;] dense_4 (Dense) (None, 10) 210 [&#39;dropout_3[0][0]&#39;] dense_5 (Dense) (None, 3) 33 [&#39;dense_4[0][0]&#39;] ================================================================================================== Total params: 901,243 Trainable params: 901,243 Non-trainable params: 0 __________________________________________________________________________________________________ Epoch 1/50 188/188 [==============================] - 28s 123ms/step - loss: 1.0780 - accuracy: 0.4116 
…
 | 0.622161 | 0.427952 | 0.428796 | 7 | LSTM | 2 | 2 | . 67 rows × 12 columns . Train shape: (83399, 8, 2) Test shape: (10292, 8, 2) Train shape: (83399, 8, 2) Test shape: (10292, 8, 2) Train shape: (83399, 2) Test shape: (10292, 2) Model: &#34;Modelo_IFA&#34; __________________________________________________________________________________________________ Layer (type) Output Shape Param # Connected to ================================================================================================== input_1 (InputLayer) [(None, 8, 2)] 0 [] input_2 (InputLayer) [(None, 8, 2)] 0 [] lstm (LSTM) (None, 8, 100) 40800 [&#39;input_1[0][0]&#39;] lstm_1 (LSTM) (None, 8, 100) 40800 [&#39;input_2[0][0]&#39;] reshape (Reshape) (None, 800) 0 [&#39;lstm[0][0]&#39;] reshape_1 (Reshape) (None, 800) 0 [&#39;lstm_1[0][0]&#39;] input_3 (InputLayer) [(None, 2)] 0 [] concatenate (Concatenate) (None, 1602) 0 [&#39;reshape[0][0]&#39;, &#39;reshape_1[0][0]&#39;, &#39;input_3[0][0]&#39;] dense (Dense) (None, 500) 801500 [&#39;concatenate[0][0]&#39;] dropout (Dropout) (None, 500) 0 [&#39;dense[0][0]&#39;] dense_1 (Dense) (None, 200) 100200 [&#39;dropout[0][0]&#39;] dropout_1 (Dropout) (None, 200) 0 [&#39;dense_1[0][0]&#39;] dense_2 (Dense) (None, 80) 16080 [&#39;dropout_1[0][0]&#39;] dropout_2 (Dropout) (None, 80) 0 [&#39;dense_2[0][0]&#39;] dense_3 (Dense) (None, 20) 1620 [&#39;dropout_2[0][0]&#39;] dropout_3 (Dropout) (None, 20) 0 [&#39;dense_3[0][0]&#39;] dense_4 (Dense) (None, 10) 210 [&#39;dropout_3[0][0]&#39;] dense_5 (Dense) (None, 3) 33 [&#39;dense_4[0][0]&#39;] ================================================================================================== Total params: 1,001,243 Trainable params: 1,001,243 Non-trainable params: 0 __________________________________________________________________________________________________ Epoch 1/50 188/188 [==============================] - 30s 137ms/step - loss: 1.0826 - accuracy: 0.3
…
 | 0.628440 | 0.431302 | 0.432004 | 8 | LSTM | 2 | 2 | . 68 rows × 12 columns . Train shape: (83399, 9, 2) Test shape: (10292, 9, 2) Train shape: (83399, 9, 2) Test shape: (10292, 9, 2) Train shape: (83399, 2) Test shape: (10292, 2) Model: &#34;Modelo_IFA&#34; __________________________________________________________________________________________________ Layer (type) Output Shape Param # Connected to ================================================================================================== input_1 (InputLayer) [(None, 9, 2)] 0 [] input_2 (InputLayer) [(None, 9, 2)] 0 [] lstm (LSTM) (None, 9, 100) 40800 [&#39;input_1[0][0]&#39;] lstm_1 (LSTM) (None, 9, 100) 40800 [&#39;input_2[0][0]&#39;] reshape (Reshape) (None, 900) 0 [&#39;lstm[0][0]&#39;] reshape_1 (Reshape) (None, 900) 0 [&#39;lstm_1[0][0]&#39;] input_3 (InputLayer) [(None, 2)] 0 [] concatenate (Concatenate) (None, 1802) 0 [&#39;reshape[0][0]&#39;, &#39;reshape_1[0][0]&#39;, &#39;input_3[0][0]&#39;] dense (Dense) (None, 500) 901500 [&#39;concatenate[0][0]&#39;] dropout (Dropout) (None, 500) 0 [&#39;dense[0][0]&#39;] dense_1 (Dense) (None, 200) 100200 [&#39;dropout[0][0]&#39;] dropout_1 (Dropout) (None, 200) 0 [&#39;dense_1[0][0]&#39;] dense_2 (Dense) (None, 80) 16080 [&#39;dropout_1[0][0]&#39;] dropout_2 (Dropout) (None, 80) 0 [&#39;dense_2[0][0]&#39;] dense_3 (Dense) (None, 20) 1620 [&#39;dropout_2[0][0]&#39;] dropout_3 (Dropout) (None, 20) 0 [&#39;dense_3[0][0]&#39;] dense_4 (Dense) (None, 10) 210 [&#39;dropout_3[0][0]&#39;] dense_5 (Dense) (None, 3) 33 [&#39;dense_4[0][0]&#39;] ================================================================================================== Total params: 1,101,243 Trainable params: 1,101,243 Non-trainable params: 0 __________________________________________________________________________________________________ Epoch 1/50 188/188 [==============================] - 36s 156ms/step - loss: 1.0750 - accuracy: 0.4
…
29962 | 0.438532 | 0.438226 | 9 | LSTM | 2 | 2 | . 69 rows × 12 columns . Train shape: (83399, 10, 2) Test shape: (10292, 10, 2) Train shape: (83399, 10, 2) Test shape: (10292, 10, 2) Train shape: (83399, 2) Test shape: (10292, 2) Model: &#34;Modelo_IFA&#34; __________________________________________________________________________________________________ Layer (type) Output Shape Param # Connected to ================================================================================================== input_1 (InputLayer) [(None, 10, 2)] 0 [] input_2 (InputLayer) [(None, 10, 2)] 0 [] lstm (LSTM) (None, 10, 100) 40800 [&#39;input_1[0][0]&#39;] lstm_1 (LSTM) (None, 10, 100) 40800 [&#39;input_2[0][0]&#39;] reshape (Reshape) (None, 1000) 0 [&#39;lstm[0][0]&#39;] reshape_1 (Reshape) (None, 1000) 0 [&#39;lstm_1[0][0]&#39;] input_3 (InputLayer) [(None, 2)] 0 [] concatenate (Concatenate) (None, 2002) 0 [&#39;reshape[0][0]&#39;, &#39;reshape_1[0][0]&#39;, &#39;input_3[0][0]&#39;] dense (Dense) (None, 500) 1001500 [&#39;concatenate[0][0]&#39;] dropout (Dropout) (None, 500) 0 [&#39;dense[0][0]&#39;] dense_1 (Dense) (None, 200) 100200 [&#39;dropout[0][0]&#39;] dropout_1 (Dropout) (None, 200) 0 [&#39;dense_1[0][0]&#39;] dense_2 (Dense) (None, 80) 16080 [&#39;dropout_1[0][0]&#39;] dropout_2 (Dropout) (None, 80) 0 [&#39;dense_2[0][0]&#39;] dense_3 (Dense) (None, 20) 1620 [&#39;dropout_2[0][0]&#39;] dropout_3 (Dropout) (None, 20) 0 [&#39;dense_3[0][0]&#39;] dense_4 (Dense) (None, 10) 210 [&#39;dropout_3[0][0]&#39;] dense_5 (Dense) (None, 3) 33 [&#39;dense_4[0][0]&#39;] ================================================================================================== Total params: 1,201,243 Trainable params: 1,201,243 Non-trainable params: 0 __________________________________________________________________________________________________ Epoch 1/50 188/188 [==============================] - 36s 160ms/step - loss: 1.0794 - accuracy: 0.3
…
| 0.436326 | 0.436371 | 10 | LSTM | 2 | 2 | . 70 rows × 12 columns . Train shape: (83399, 1, 2) Test shape: (10292, 1, 2) Train shape: (83399, 1, 2) Test shape: (10292, 1, 2) Train shape: (83399, 2) Test shape: (10292, 2) Model: &#34;Modelo_IFA&#34; __________________________________________________________________________________________________ Layer (type) Output Shape Param # Connected to ================================================================================================== input_1 (InputLayer) [(None, 1, 2)] 0 [] input_2 (InputLayer) [(None, 1, 2)] 0 [] simple_rnn (SimpleRNN) (None, 1, 100) 10200 [&#39;input_1[0][0]&#39;] simple_rnn_1 (SimpleRNN) (None, 1, 100) 10200 [&#39;input_2[0][0]&#39;] reshape (Reshape) (None, 100) 0 [&#39;simple_rnn[0][0]&#39;] reshape_1 (Reshape) (None, 100) 0 [&#39;simple_rnn_1[0][0]&#39;] input_3 (InputLayer) [(None, 2)] 0 [] concatenate (Concatenate) (None, 202) 0 [&#39;reshape[0][0]&#39;, &#39;reshape_1[0][0]&#39;, &#39;input_3[0][0]&#39;] dense (Dense) (None, 500) 101500 [&#39;concatenate[0][0]&#39;] dropout (Dropout) (None, 500) 0 [&#39;dense[0][0]&#39;] dense_1 (Dense) (None, 200) 100200 [&#39;dropout[0][0]&#39;] dropout_1 (Dropout) (None, 200) 0 [&#39;dense_1[0][0]&#39;] dense_2 (Dense) (None, 80) 16080 [&#39;dropout_1[0][0]&#39;] dropout_2 (Dropout) (None, 80) 0 [&#39;dense_2[0][0]&#39;] dense_3 (Dense) (None, 20) 1620 [&#39;dropout_2[0][0]&#39;] dropout_3 (Dropout) (None, 20) 0 [&#39;dense_3[0][0]&#39;] dense_4 (Dense) (None, 10) 210 [&#39;dropout_3[0][0]&#39;] dense_5 (Dense) (None, 3) 33 [&#39;dense_4[0][0]&#39;] ================================================================================================== Total params: 240,043 Trainable params: 240,043 Non-trainable params: 0 __________________________________________________________________________________________________ Epoch 1/50 188/188 [==============================] - 8s 28ms/step - loss: 1.0907 - accuracy: 0.3669 - 
…
 0.352692 | 0.354411 | 1 | Simple | 2 | 2 | . 71 rows × 12 columns . Train shape: (83399, 2, 2) Test shape: (10292, 2, 2) Train shape: (83399, 2, 2) Test shape: (10292, 2, 2) Train shape: (83399, 2) Test shape: (10292, 2) Model: &#34;Modelo_IFA&#34; __________________________________________________________________________________________________ Layer (type) Output Shape Param # Connected to ================================================================================================== input_1 (InputLayer) [(None, 2, 2)] 0 [] input_2 (InputLayer) [(None, 2, 2)] 0 [] simple_rnn (SimpleRNN) (None, 2, 100) 10200 [&#39;input_1[0][0]&#39;] simple_rnn_1 (SimpleRNN) (None, 2, 100) 10200 [&#39;input_2[0][0]&#39;] reshape (Reshape) (None, 200) 0 [&#39;simple_rnn[0][0]&#39;] reshape_1 (Reshape) (None, 200) 0 [&#39;simple_rnn_1[0][0]&#39;] input_3 (InputLayer) [(None, 2)] 0 [] concatenate (Concatenate) (None, 402) 0 [&#39;reshape[0][0]&#39;, &#39;reshape_1[0][0]&#39;, &#39;input_3[0][0]&#39;] dense (Dense) (None, 500) 201500 [&#39;concatenate[0][0]&#39;] dropout (Dropout) (None, 500) 0 [&#39;dense[0][0]&#39;] dense_1 (Dense) (None, 200) 100200 [&#39;dropout[0][0]&#39;] dropout_1 (Dropout) (None, 200) 0 [&#39;dense_1[0][0]&#39;] dense_2 (Dense) (None, 80) 16080 [&#39;dropout_1[0][0]&#39;] dropout_2 (Dropout) (None, 80) 0 [&#39;dense_2[0][0]&#39;] dense_3 (Dense) (None, 20) 1620 [&#39;dropout_2[0][0]&#39;] dropout_3 (Dropout) (None, 20) 0 [&#39;dense_3[0][0]&#39;] dense_4 (Dense) (None, 10) 210 [&#39;dropout_3[0][0]&#39;] dense_5 (Dense) (None, 3) 33 [&#39;dense_4[0][0]&#39;] ================================================================================================== Total params: 340,043 Trainable params: 340,043 Non-trainable params: 0 __________________________________________________________________________________________________ Epoch 1/50 188/188 [==============================] - 12s 42ms/step - loss: 1.0874 - accuracy: 0.3804 -
…
 0.393465 | 0.394592 | 2 | Simple | 2 | 2 | . 72 rows × 12 columns . Train shape: (83399, 3, 2) Test shape: (10292, 3, 2) Train shape: (83399, 3, 2) Test shape: (10292, 3, 2) Train shape: (83399, 2) Test shape: (10292, 2) Model: &#34;Modelo_IFA&#34; __________________________________________________________________________________________________ Layer (type) Output Shape Param # Connected to ================================================================================================== input_1 (InputLayer) [(None, 3, 2)] 0 [] input_2 (InputLayer) [(None, 3, 2)] 0 [] simple_rnn (SimpleRNN) (None, 3, 100) 10200 [&#39;input_1[0][0]&#39;] simple_rnn_1 (SimpleRNN) (None, 3, 100) 10200 [&#39;input_2[0][0]&#39;] reshape (Reshape) (None, 300) 0 [&#39;simple_rnn[0][0]&#39;] reshape_1 (Reshape) (None, 300) 0 [&#39;simple_rnn_1[0][0]&#39;] input_3 (InputLayer) [(None, 2)] 0 [] concatenate (Concatenate) (None, 602) 0 [&#39;reshape[0][0]&#39;, &#39;reshape_1[0][0]&#39;, &#39;input_3[0][0]&#39;] dense (Dense) (None, 500) 301500 [&#39;concatenate[0][0]&#39;] dropout (Dropout) (None, 500) 0 [&#39;dense[0][0]&#39;] dense_1 (Dense) (None, 200) 100200 [&#39;dropout[0][0]&#39;] dropout_1 (Dropout) (None, 200) 0 [&#39;dense_1[0][0]&#39;] dense_2 (Dense) (None, 80) 16080 [&#39;dropout_1[0][0]&#39;] dropout_2 (Dropout) (None, 80) 0 [&#39;dense_2[0][0]&#39;] dense_3 (Dense) (None, 20) 1620 [&#39;dropout_2[0][0]&#39;] dropout_3 (Dropout) (None, 20) 0 [&#39;dense_3[0][0]&#39;] dense_4 (Dense) (None, 10) 210 [&#39;dropout_3[0][0]&#39;] dense_5 (Dense) (None, 3) 33 [&#39;dense_4[0][0]&#39;] ================================================================================================== Total params: 440,043 Trainable params: 440,043 Non-trainable params: 0 __________________________________________________________________________________________________ Epoch 1/50 188/188 [==============================] - 13s 50ms/step - loss: 1.0863 - accuracy: 0.3847 -
…
 0.405959 | 0.406901 | 3 | Simple | 2 | 2 | . 73 rows × 12 columns . Train shape: (83399, 4, 2) Test shape: (10292, 4, 2) Train shape: (83399, 4, 2) Test shape: (10292, 4, 2) Train shape: (83399, 2) Test shape: (10292, 2) Model: &#34;Modelo_IFA&#34; __________________________________________________________________________________________________ Layer (type) Output Shape Param # Connected to ================================================================================================== input_1 (InputLayer) [(None, 4, 2)] 0 [] input_2 (InputLayer) [(None, 4, 2)] 0 [] simple_rnn (SimpleRNN) (None, 4, 100) 10200 [&#39;input_1[0][0]&#39;] simple_rnn_1 (SimpleRNN) (None, 4, 100) 10200 [&#39;input_2[0][0]&#39;] reshape (Reshape) (None, 400) 0 [&#39;simple_rnn[0][0]&#39;] reshape_1 (Reshape) (None, 400) 0 [&#39;simple_rnn_1[0][0]&#39;] input_3 (InputLayer) [(None, 2)] 0 [] concatenate (Concatenate) (None, 802) 0 [&#39;reshape[0][0]&#39;, &#39;reshape_1[0][0]&#39;, &#39;input_3[0][0]&#39;] dense (Dense) (None, 500) 401500 [&#39;concatenate[0][0]&#39;] dropout (Dropout) (None, 500) 0 [&#39;dense[0][0]&#39;] dense_1 (Dense) (None, 200) 100200 [&#39;dropout[0][0]&#39;] dropout_1 (Dropout) (None, 200) 0 [&#39;dense_1[0][0]&#39;] dense_2 (Dense) (None, 80) 16080 [&#39;dropout_1[0][0]&#39;] dropout_2 (Dropout) (None, 80) 0 [&#39;dense_2[0][0]&#39;] dense_3 (Dense) (None, 20) 1620 [&#39;dropout_2[0][0]&#39;] dropout_3 (Dropout) (None, 20) 0 [&#39;dense_3[0][0]&#39;] dense_4 (Dense) (None, 10) 210 [&#39;dropout_3[0][0]&#39;] dense_5 (Dense) (None, 3) 33 [&#39;dense_4[0][0]&#39;] ================================================================================================== Total params: 540,043 Trainable params: 540,043 Non-trainable params: 0 __________________________________________________________________________________________________ Epoch 1/50 188/188 [==============================] - 12s 48ms/step - loss: 1.0833 - accuracy: 0.3897 -
…
 0.413532 | 0.414293 | 4 | Simple | 2 | 2 | . 74 rows × 12 columns . Train shape: (83399, 5, 2) Test shape: (10292, 5, 2) Train shape: (83399, 5, 2) Test shape: (10292, 5, 2) Train shape: (83399, 2) Test shape: (10292, 2) Model: &#34;Modelo_IFA&#34; __________________________________________________________________________________________________ Layer (type) Output Shape Param # Connected to ================================================================================================== input_1 (InputLayer) [(None, 5, 2)] 0 [] input_2 (InputLayer) [(None, 5, 2)] 0 [] simple_rnn (SimpleRNN) (None, 5, 100) 10200 [&#39;input_1[0][0]&#39;] simple_rnn_1 (SimpleRNN) (None, 5, 100) 10200 [&#39;input_2[0][0]&#39;] reshape (Reshape) (None, 500) 0 [&#39;simple_rnn[0][0]&#39;] reshape_1 (Reshape) (None, 500) 0 [&#39;simple_rnn_1[0][0]&#39;] input_3 (InputLayer) [(None, 2)] 0 [] concatenate (Concatenate) (None, 1002) 0 [&#39;reshape[0][0]&#39;, &#39;reshape_1[0][0]&#39;, &#39;input_3[0][0]&#39;] dense (Dense) (None, 500) 501500 [&#39;concatenate[0][0]&#39;] dropout (Dropout) (None, 500) 0 [&#39;dense[0][0]&#39;] dense_1 (Dense) (None, 200) 100200 [&#39;dropout[0][0]&#39;] dropout_1 (Dropout) (None, 200) 0 [&#39;dense_1[0][0]&#39;] dense_2 (Dense) (None, 80) 16080 [&#39;dropout_1[0][0]&#39;] dropout_2 (Dropout) (None, 80) 0 [&#39;dense_2[0][0]&#39;] dense_3 (Dense) (None, 20) 1620 [&#39;dropout_2[0][0]&#39;] dropout_3 (Dropout) (None, 20) 0 [&#39;dense_3[0][0]&#39;] dense_4 (Dense) (None, 10) 210 [&#39;dropout_3[0][0]&#39;] dense_5 (Dense) (None, 3) 33 [&#39;dense_4[0][0]&#39;] ================================================================================================== Total params: 640,043 Trainable params: 640,043 Non-trainable params: 0 __________________________________________________________________________________________________ Epoch 1/50 188/188 [==============================] - 13s 55ms/step - loss: 1.0926 - accuracy: 0.3615 -
…
 0.429513 | 0.428766 | 5 | Simple | 2 | 2 | . 75 rows × 12 columns . Train shape: (83399, 6, 2) Test shape: (10292, 6, 2) Train shape: (83399, 6, 2) Test shape: (10292, 6, 2) Train shape: (83399, 2) Test shape: (10292, 2) Model: &#34;Modelo_IFA&#34; __________________________________________________________________________________________________ Layer (type) Output Shape Param # Connected to ================================================================================================== input_1 (InputLayer) [(None, 6, 2)] 0 [] input_2 (InputLayer) [(None, 6, 2)] 0 [] simple_rnn (SimpleRNN) (None, 6, 100) 10200 [&#39;input_1[0][0]&#39;] simple_rnn_1 (SimpleRNN) (None, 6, 100) 10200 [&#39;input_2[0][0]&#39;] reshape (Reshape) (None, 600) 0 [&#39;simple_rnn[0][0]&#39;] reshape_1 (Reshape) (None, 600) 0 [&#39;simple_rnn_1[0][0]&#39;] input_3 (InputLayer) [(None, 2)] 0 [] concatenate (Concatenate) (None, 1202) 0 [&#39;reshape[0][0]&#39;, &#39;reshape_1[0][0]&#39;, &#39;input_3[0][0]&#39;] dense (Dense) (None, 500) 601500 [&#39;concatenate[0][0]&#39;] dropout (Dropout) (None, 500) 0 [&#39;dense[0][0]&#39;] dense_1 (Dense) (None, 200) 100200 [&#39;dropout[0][0]&#39;] dropout_1 (Dropout) (None, 200) 0 [&#39;dense_1[0][0]&#39;] dense_2 (Dense) (None, 80) 16080 [&#39;dropout_1[0][0]&#39;] dropout_2 (Dropout) (None, 80) 0 [&#39;dense_2[0][0]&#39;] dense_3 (Dense) (None, 20) 1620 [&#39;dropout_2[0][0]&#39;] dropout_3 (Dropout) (None, 20) 0 [&#39;dense_3[0][0]&#39;] dense_4 (Dense) (None, 10) 210 [&#39;dropout_3[0][0]&#39;] dense_5 (Dense) (None, 3) 33 [&#39;dense_4[0][0]&#39;] ================================================================================================== Total params: 740,043 Trainable params: 740,043 Non-trainable params: 0 __________________________________________________________________________________________________ Epoch 1/50 188/188 [==============================] - 17s 65ms/step - loss: 1.0823 - accuracy: 0.3891 -
…
 0.414225 | 0.414793 | 6 | Simple | 2 | 2 | . 76 rows × 12 columns . Train shape: (83399, 7, 2) Test shape: (10292, 7, 2) Train shape: (83399, 7, 2) Test shape: (10292, 7, 2) Train shape: (83399, 2) Test shape: (10292, 2) Model: &#34;Modelo_IFA&#34; __________________________________________________________________________________________________ Layer (type) Output Shape Param # Connected to ================================================================================================== input_1 (InputLayer) [(None, 7, 2)] 0 [] input_2 (InputLayer) [(None, 7, 2)] 0 [] simple_rnn (SimpleRNN) (None, 7, 100) 10200 [&#39;input_1[0][0]&#39;] simple_rnn_1 (SimpleRNN) (None, 7, 100) 10200 [&#39;input_2[0][0]&#39;] reshape (Reshape) (None, 700) 0 [&#39;simple_rnn[0][0]&#39;] reshape_1 (Reshape) (None, 700) 0 [&#39;simple_rnn_1[0][0]&#39;] input_3 (InputLayer) [(None, 2)] 0 [] concatenate (Concatenate) (None, 1402) 0 [&#39;reshape[0][0]&#39;, &#39;reshape_1[0][0]&#39;, &#39;input_3[0][0]&#39;] dense (Dense) (None, 500) 701500 [&#39;concatenate[0][0]&#39;] dropout (Dropout) (None, 500) 0 [&#39;dense[0][0]&#39;…
500) 503000 [&#39;concatenate[0][0]&#39;] dropout (Dropout) (None, 500) 0 [&#39;dense[0][0]&#39;] dense_1 (Dense) (None, 200) 100200 [&#39;dropout[0][0]&#39;] dropout_1 (Dropout) (None, 200) 0 [&#39;dense_1[0][0]&#39;] dense_2 (Dense) (None, 80) 16080 [&#39;dropout_1[0][0]&#39;] dropout_2 (Dropout) (None, 80) 0 [&#39;dense_2[0][0]&#39;] dense_3 (Dense) (None, 20) 1620 [&#39;dropout_2[0][0]&#39;] dropout_3 (Dropout) (None, 20) 0 [&#39;dense_3[0][0]&#39;] dense_4 (Dense) (None, 10) 210 [&#39;dropout_3[0][0]&#39;] dense_5 (Dense) (None, 3) 33 [&#39;dense_4[0][0]&#39;] ================================================================================================== Total params: 642,543 Trainable params: 642,543 Non-trainable params: 0 __________________________________________________________________________________________________ Epoch 1/50 188/188 [==============================] - 16s 70ms/step - loss: 1.0724 - accuracy: 0.4097 -
…
0.471777 | 0.469987 | 5 | Simple | 5 | 7 | . 155 rows × 12 columns . Train shape: (83399, 6, 7) Test shape: (10292, 6, 7) Train shape: (83399, 6, 7) Test shape: (10292, 6, 7) Train shape: (83399, 5) Test shape: (10292, 5) Model: &#34;Modelo_IFA&#34; __________________________________________________________________________________________________ Layer (type) Output Shape Param # Connected to ================================================================================================== input_1 (InputLayer) [(None, 6, 7)] 0 [] input_2 (InputLayer) [(None, 6, 7)] 0 [] simple_rnn (SimpleRNN) (None, 6, 100) 10700 [&#39;input_1[0][0]&#39;] simple_rnn_1 (SimpleRNN) (None, 6, 100) 10700 [&#39;input_2[0][0]&#39;] reshape (Reshape) (None, 600) 0 [&#39;simple_rnn[0][0]&#39;] reshape_1 (Reshape) (None, 600) 0 [&#39;simple_rnn_1[0][0]&#39;] input_3 (InputLayer) [(None, 5)] 0 [] concatenate (Concatenate) (None, 1205) 0 [&#39;reshape[0][0]&#39;, &#39;reshape_1[0][0]&#39;, &#39;input_3[0][0]&#39;] dense (Dense) (None, 500) 603000 [&#39;concatenate[0][0]&#39;] dropout (Dropout) (None, 500) 0 [&#39;dense[0][0]&#39;] dense_1 (Dense) (None, 200) 100200 [&#39;dropout[0][0]&#39;] dropout_1 (Dropout) (None, 200) 0 [&#39;dense_1[0][0]&#39;] dense_2 (Dense) (None, 80) 16080 [&#39;dropout_1[0][0]&#39;] dropout_2 (Dropout) (None, 80) 0 [&#39;dense_2[0][0]&#39;] dense_3 (Dense) (None, 20) 1620 [&#39;dropout_2[0][0]&#39;] dropout_3 (Dropout) (None, 20) 0 [&#39;dense_3[0][0]&#39;] dense_4 (Dense) (None, 10) 210 [&#39;dropout_3[0][0]&#39;] dense_5 (Dense) (None, 3) 33 [&#39;dense_4[0][0]&#39;] ================================================================================================== Total params: 742,543 Trainable params: 742,543 Non-trainable params: 0 __________________________________________________________________________________________________ Epoch 1/50 188/188 [==============================] - 17s 76ms/step - loss: 1.0715 - accuracy: 0.4063 -
…
0.475283 | 0.472490 | 6 | Simple | 5 | 7 | . 156 rows × 12 columns . Train shape: (83399, 7, 7) Test shape: (10292, 7, 7) Train shape: (83399, 7, 7) Test shape: (10292, 7, 7) Train shape: (83399, 5) Test shape: (10292, 5) Model: &#34;Modelo_IFA&#34; __________________________________________________________________________________________________ Layer (type) Output Shape Param # Connected to ================================================================================================== input_1 (InputLayer) [(None, 7, 7)] 0 [] input_2 (InputLayer) [(None, 7, 7)] 0 [] simple_rnn (SimpleRNN) (None, 7, 100) 10700 [&#39;input_1[0][0]&#39;] simple_rnn_1 (SimpleRNN) (None, 7, 100) 10700 [&#39;input_2[0][0]&#39;] reshape (Reshape) (None, 700) 0 [&#39;simple_rnn[0][0]&#39;] reshape_1 (Reshape) (None, 700) 0 [&#39;simple_rnn_1[0][0]&#39;] input_3 (InputLayer) [(None, 5)] 0 [] concatenate (Concatenate) (None, 1405) 0 [&#39;reshape[0][0]&#39;, &#39;reshape_1[0][0]&#39;, &#39;input_3[0][0]&#39;] dense (Dense) (None, 500) 703000 [&#39;concatenate[0][0]&#39;] dropout (Dropout) (None, 500) 0 [&#39;dense[0][0]&#39;] dense_1 (Dense) (None, 200) 100200 [&#39;dropout[0][0]&#39;] dropout_1 (Dropout) (None, 200) 0 [&#39;dense_1[0][0]&#39;] dense_2 (Dense) (None, 80) 16080 [&#39;dropout_1[0][0]&#39;] dropout_2 (Dropout) (None, 80) 0 [&#39;dense_2[0][0]&#39;] dense_3 (Dense) (None, 20) 1620 [&#39;dropout_2[0][0]&#39;] dropout_3 (Dropout) (None, 20) 0 [&#39;dense_3[0][0]&#39;] dense_4 (Dense) (None, 10) 210 [&#39;dropout_3[0][0]&#39;] dense_5 (Dense) (None, 3) 33 [&#39;dense_4[0][0]&#39;] ================================================================================================== Total params: 842,543 Trainable params: 842,543 Non-trainable params: 0 __________________________________________________________________________________________________ Epoch 1/50 188/188 [==============================] - 20s 90ms/step - loss: 1.0770 - accuracy: 0.4060 -
…
0.494250 | 0.490033 | 7 | Simple | 5 | 7 | . 157 rows × 12 columns . Train shape: (83399, 8, 7) Test shape: (10292, 8, 7) Train shape: (83399, 8, 7) Test shape: (10292, 8, 7) Train shape: (83399, 5) Test shape: (10292, 5) Model: &#34;Modelo_IFA&#34; __________________________________________________________________________________________________ Layer (type) Output Shape Param # Connected to ================================================================================================== input_1 (InputLayer) [(None, 8, 7)] 0 [] input_2 (InputLayer) [(None, 8, 7)] 0 [] simple_rnn (SimpleRNN) (None, 8, 100) 10700 [&#39;input_1[0][0]&#39;] simple_rnn_1 (SimpleRNN) (None, 8, 100) 10700 [&#39;input_2[0][0]&#39;] reshape (Reshape) (None, 800) 0 [&#39;simple_rnn[0][0]&#39;] reshape_1 (Reshape) (None, 800) 0 [&#39;simple_rnn_1[0][0]&#39;] input_3 (InputLayer) [(None, 5)] 0 [] concatenate (Concatenate) (None, 1605) 0 [&#39;reshape[0][0]&#39;, &#39;reshape_1[0][0]&#39;, &#39;input_3[0][0]&#39;] dense (Dense) (None, 500) 803000 [&#39;concatenate[0][0]&#39;] dropout (Dropout) (None, 500) 0 [&#39;dense[0][0]&#39;] dense_1 (Dense) (None, 200) 100200 [&#39;dropout[0][0]&#39;] dropout_1 (Dropout) (None, 200) 0 [&#39;dense_1[0][0]&#39;] dense_2 (Dense) (None, 80) 16080 [&#39;dropout_1[0][0]&#39;] dropout_2 (Dropout) (None, 80) 0 [&#39;dense_2[0][0]&#39;] dense_3 (Dense) (None, 20) 1620 [&#39;dropout_2[0][0]&#39;] dropout_3 (Dropout) (None, 20) 0 [&#39;dense_3[0][0]&#39;] dense_4 (Dense) (None, 10) 210 [&#39;dropout_3[0][0]&#39;] dense_5 (Dense) (None, 3) 33 [&#39;dense_4[0][0]&#39;] ================================================================================================== Total params: 942,543 Trainable params: 942,543 Non-trainable params: 0 __________________________________________________________________________________________________ Epoch 1/50 188/188 [==============================] - 21s 99ms/step - loss: 1.0682 - accuracy: 0.4142 -
…
0.476659 | 0.474131 | 8 | Simple | 5 | 7 | . 158 rows × 12 columns . Train shape: (83399, 9, 7) Test shape: (10292, 9, 7) Train shape: (83399, 9, 7) Test shape: (10292, 9, 7) Train shape: (83399, 5) Test shape: (10292, 5) Model: &#34;Modelo_IFA&#34; __________________________________________________________________________________________________ Layer (type) Output Shape Param # Connected to ================================================================================================== input_1 (InputLayer) [(None, 9, 7)] 0 [] input_2 (InputLayer) [(None, 9, 7)] 0 [] simple_rnn (SimpleRNN) (None, 9, 100) 10700 [&#39;input_1[0][0]&#39;] simple_rnn_1 (SimpleRNN) (None, 9, 100) 10700 [&#39;input_2[0][0]&#39;] reshape (Reshape) (None, 900) 0 [&#39;simple_rnn[0][0]&#39;] reshape_1 (Reshape) (None, 900) 0 [&#39;simple_rnn_1[0][0]&#39;] input_3 (InputLayer) [(None, 5)] 0 [] concatenate (Concatenate) (None, 1805) 0 [&#39;reshape[0][0]&#39;, &#39;reshape_1[0][0]&#39;, &#39;input_3[0][0]&#39;] dense (Dense) (None, 500) 903000 [&#39;concatenate[0][0]&#39;] dropout (Dropout) (None, 500) 0 [&#39;dense[0][0]&#39;] dense_1 (Dense) (None, 200) 100200 [&#39;dropout[0][0]&#39;] dropout_1 (Dropout) (None, 200) 0 [&#39;dense_1[0][0]&#39;] dense_2 (Dense) (None, 80) 16080 [&#39;dropout_1[0][0]&#39;] dropout_2 (Dropout) (None, 80) 0 [&#39;dense_2[0][0]&#39;] dense_3 (Dense) (None, 20) 1620 [&#39;dropout_2[0][0]&#39;] dropout_3 (Dropout) (None, 20) 0 [&#39;dense_3[0][0]&#39;] dense_4 (Dense) (None, 10) 210 [&#39;dropout_3[0][0]&#39;] dense_5 (Dense) (None, 3) 33 [&#39;dense_4[0][0]&#39;] ================================================================================================== Total params: 1,042,543 Trainable params: 1,042,543 Non-trainable params: 0 __________________________________________________________________________________________________ Epoch 1/50 188/188 [==============================] - 22s 100ms/step - loss: 1.0718 - accuracy: 0.4
…
30 | 0.472257 | 9 | Simple | 5 | 7 | . 159 rows × 12 columns . Train shape: (83399, 10, 7) Test shape: (10292, 10, 7) Train shape: (83399, 10, 7) Test shape: (10292, 10, 7) Train shape: (83399, 5) Test shape: (10292, 5) Model: &#34;Modelo_IFA&#34; __________________________________________________________________________________________________ Layer (type) Output Shape Param # Connected to ================================================================================================== input_1 (InputLayer) [(None, 10, 7)] 0 [] input_2 (InputLayer) [(None, 10, 7)] 0 [] simple_rnn (SimpleRNN) (None, 10, 100) 10700 [&#39;input_1[0][0]&#39;] simple_rnn_1 (SimpleRNN) (None, 10, 100) 10700 [&#39;input_2[0][0]&#39;] reshape (Reshape) (None, 1000) 0 [&#39;simple_rnn[0][0]&#39;] reshape_1 (Reshape) (None, 1000) 0 [&#39;simple_rnn_1[0][0]&#39;] input_3 (InputLayer) [(None, 5)] 0 [] concatenate (Concatenate) (None, 2005) 0 [&#39;reshape[0][0]&#39;, &#39;reshape_1[0][0]&#39;, &#39;input_3[0][0]&#39;] dense (Dense) (None, 500) 1003000 [&#39;concatenate[0][0]&#39;] dropout (Dropout) (None, 500) 0 [&#39;dense[0][0]&#39;] dense_1 (Dense) (None, 200) 100200 [&#39;dropout[0][0]&#39;] dropout_1 (Dropout) (None, 200) 0 [&#39;dense_1[0][0]&#39;] dense_2 (Dense) (None, 80) 16080 [&#39;dropout_1[0][0]&#39;] dropout_2 (Dropout) (None, 80) 0 [&#39;dense_2[0][0]&#39;] dense_3 (Dense) (None, 20) 1620 [&#39;dropout_2[0][0]&#39;] dropout_3 (Dropout) (None, 20) 0 [&#39;dense_3[0][0]&#39;] dense_4 (Dense) (None, 10) 210 [&#39;dropout_3[0][0]&#39;] dense_5 (Dense) (None, 3) 33 [&#39;dense_4[0][0]&#39;] ================================================================================================== Total params: 1,142,543 Trainable params: 1,142,543 Non-trainable params: 0 __________________________________________________________________________________________________ Epoch 1/50 188/188 [==============================] - 25s 116ms/step - loss: 1.0665 - accuracy: 0.4
…
.669882 | 0.479771 | 0.476747 | 10 | Simple | 5 | 7 | . 160 rows × 12 columns . Train shape: (83399, 1, 7) Test shape: (10292, 1, 7) Train shape: (83399, 1, 7) Test shape: (10292, 1, 7) Train shape: (83399, 8) Test shape: (10292, 8) Model: &#34;Modelo_IFA&#34; __________________________________________________________________________________________________ Layer (type) Output Shape Param # Connected to ================================================================================================== input_1 (InputLayer) [(None, 1, 7)] 0 [] input_2 (InputLayer) [(None, 1, 7)] 0 [] lstm (LSTM) (None, 1, 100) 42800 [&#39;input_1[0][0]&#39;] lstm_1 (LSTM) (None, 1, 100) 42800 [&#39;input_2[0][0]&#39;] reshape (Reshape) (None, 100) 0 [&#39;lstm[0][0]&#39;] reshape_1 (Reshape) (None, 100) 0 [&#39;lstm_1[0][0]&#39;] input_3 (InputLayer) [(None, 8)] 0 [] concatenate (Concatenate) (None, 208) 0 [&#39;reshape[0][0]&#39;, &#39;reshape_1[0][0]&#39;, &#39;input_3[0][0]&#39;] dense (Dense) (None, 500) 104500 [&#39;concatenate[0][0]&#39;] dropout (Dropout) (None, 500) 0 [&#39;dense[0][0]&#39;] dense_1 (Dense) (None, 200) 100200 [&#39;dropout[0][0]&#39;] dropout_1 (Dropout) (None, 200) 0 [&#39;dense_1[0][0]&#39;] dense_2 (Dense) (None, 80) 16080 [&#39;dropout_1[0][0]&#39;] dropout_2 (Dropout) (None, 80) 0 [&#39;dense_2[0][0]&#39;] dense_3 (Dense) (None, 20) 1620 [&#39;dropout_2[0][0]&#39;] dropout_3 (Dropout) (None, 20) 0 [&#39;dense_3[0][0]&#39;] dense_4 (Dense) (None, 10) 210 [&#39;dropout_3[0][0]&#39;] dense_5 (Dense) (None, 3) 33 [&#39;dense_4[0][0]&#39;] ================================================================================================== Total params: 308,243 Trainable params: 308,243 Non-trainable params: 0 __________________________________________________________________________________________________ Epoch 1/50 188/188 [==============================] - 10s 41ms/step - loss: 1.0815 - accuracy: 0.3735 -
…
| 0.635285 | 0.436354 | 0.436744 | 1 | LSTM | 8 | 7 | . 161 rows × 12 columns . Train shape: (83399, 2, 7) Test shape: (10292, 2, 7) Train shape: (83399, 2, 7) Test shape: (10292, 2, 7) Train shape: (83399, 8) Test shape: (10292, 8) Model: &#34;Modelo_IFA&#34; __________________________________________________________________________________________________ Layer (type) Output Shape Param # Connected to ================================================================================================== input_1 (InputLayer) [(None, 2, 7)] 0 [] input_2 (InputLayer) [(None, 2, 7)] 0 [] lstm (LSTM) (None, 2, 100) 42800 [&#39;input_1[0][0]&#39;] lstm_1 (LSTM) (None, 2, 100) 42800 [&#39;input_2[0][0]&#39;] reshape (Reshape) (None, 200) 0 [&#39;lstm[0][0]&#39;] reshape_1 (Reshape) (None, 200) 0 [&#39;lstm_1[0][0]&#39;] input_3 (InputLayer) [(None, 8)] 0 [] concatenate (Concatenate) (None, 408) 0 [&#39;reshape[0][0]&#39;, &#39;reshape_1[0][0]&#39;, &#39;input_3[0][0]&#39;] dense (Dense) (None, 500) 204500 [&#39;concatenate[0][0]&#39;] dropout (Dropout) (None, 500) 0 [&#39;dense[0][0]&#39;] dense_1 (Dense) (None, 200) 100200 [&#39;dropout[0][0]&#39;] dropout_1 (Dropout) (None, 200) 0 [&#39;dense_1[0][0]&#39;] dense_2 (Dense) (None, 80) 16080 [&#39;dropout_1[0][0]&#39;] dropout_2 (Dropout) (None, 80) 0 [&#39;dense_2[0][0]&#39;] dense_3 (Dense) (None, 20) 1620 [&#39;dropout_2[0][0]&#39;] dropout_3 (Dropout) (None, 20) 0 [&#39;dense_3[0][0]&#39;] dense_4 (Dense) (None, 10) 210 [&#39;dropout_3[0][0]&#39;] dense_5 (Dense) (None, 3) 33 [&#39;dense_4[0][0]&#39;] ================================================================================================== Total params: 408,243 Trainable params: 408,243 Non-trainable params: 0 __________________________________________________________________________________________________ Epoch 1/50 188/188 [==============================] - 13s 56ms/step - loss: 1.0700 - accuracy: 0.4210 -
…
| 0.643636 | 0.450414 | 0.450479 | 2 | LSTM | 8 | 7 | . 162 rows × 12 columns . Train shape: (83399, 3, 7) Test shape: (10292, 3, 7) Train shape: (83399, 3, 7) Test shape: (10292, 3, 7) Train shape: (83399, 8) Test shape: (10292, 8) Model: &#34;Modelo_IFA&#34; __________________________________________________________________________________________________ Layer (type) Output Shape Param # Connected to ================================================================================================== input_1 (InputLayer) [(None, 3, 7)] 0 [] input_2 (InputLayer) [(None, 3, 7)] 0 [] lstm (LSTM) (None, 3, 100) 42800 [&#39;input_1[0][0]&#39;] lstm_1 (LSTM) (None, 3, 100) 42800 [&#39;input_2[0][0]&#39;] reshape (Reshape) (None, 300) 0 [&#39;lstm[0][0]&#39;] reshape_1 (Reshape) (None, 300) 0 [&#39;lstm_1[0][0]&#39;] input_3 (InputLayer) [(None, 8)] 0 [] concatenate (Concatenate) (None, 608) 0 [&#39;reshape[0][0]&#39;, &#39;reshape_1[0][0]&#39;, &#39;input_3[0][0]&#39;] dense (Dense) (None, 500) 304500 [&#39;concatenate[0][0]&#39;] dropout (Dropout) (None, 500) 0 [&#39;dense[0][0]&#39;] dense_1 (Dense) (None, 200) 100200 [&#39;dropout[0][0]&#39;] dropout_1 (Dropout) (None, 200) 0 [&#39;dense_1[0][0]&#39;] dense_2 (Dense) (None, 80) 16080 [&#39;dropout_1[0][0]&#39;] dropout_2 (Dropout) (None, 80) 0 [&#39;dense_2[0][0]&#39;] dense_3 (Dense) (None, 20) 1620 [&#39;dropout_2[0][0]&#39;] dropout_3 (Dropout) (None, 20) 0 [&#39;dense_3[0][0]&#39;] dense_4 (Dense) (None, 10) 210 [&#39;dropout_3[0][0]&#39;] dense_5 (Dense) (None, 3) 33 [&#39;dense_4[0][0]&#39;] ================================================================================================== Total params: 508,243 Trainable params: 508,243 Non-trainable params: 0 __________________________________________________________________________________________________ Epoch 1/50 188/188 [==============================] - 20s 89ms/step - loss: 1.0653 - accuracy: 0.4126 -
…
| 0.645874 | 0.449897 | 0.450247 | 3 | LSTM | 8 | 7 | . 163 rows × 12 columns . Train shape: (83399, 4, 7) Test shape: (10292, 4, 7) Train shape: (83399, 4, 7) Test shape: (10292, 4, 7) Train shape: (83399, 8) Test shape: (10292, 8) Model: &#34;Modelo_IFA&#34; __________________________________________________________________________________________________ Layer (type) Output Shape Param # Connected to ================================================================================================== input_1 (InputLayer) [(None, 4, 7)] 0 [] input_2 (InputLayer) [(None, 4, 7)] 0 [] lstm (LSTM) (None, 4, 100) 42800 [&#39;input_1[0][0]&#39;] lstm_1 (LSTM) (None, 4, 100) 42800 [&#39;input_2[0][0]&#39;] reshape (Reshape) (None, 400) 0 [&#39;lstm[0][0]&#39;] reshape_1 (Reshape) (None, 400) 0 [&#39;lstm_1[0][0]&#39;] input_3 (InputLayer) [(None, 8)] 0 [] concatenate (Concatenate) (None, 808) 0 [&#39;reshape[0][0]&#39;, &#39;reshape_1[0][0]&#39;, &#39;input_3[0][0]&#39;] dense (Dense) (None, 500) 404500 [&#39;concatenate[0][0]&#39;] dropout (Dropout) (None, 500) 0 [&#39;dense[0][0]&#39;] dense_1 (Dense) (None, 200) 100200 [&#39;dropout[0][0]&#39;] dropout_1 (Dropout) (None, 200) 0 [&#39;dense_1[0][0]&#39;] dense_2 (Dense) (None, 80) 16080 [&#39;dropout_1[0][0]&#39;] dropout_2 (Dropout) (None, 80) 0 [&#39;dense_2[0][0]&#39;] dense_3 (Dense) (None, 20) 1620 [&#39;dropout_2[0][0]&#39;] dropout_3 (Dropout) (None, 20) 0 [&#39;dense_3[0][0]&#39;] dense_4 (Dense) (None, 10) 210 [&#39;dropout_3[0][0]&#39;] dense_5 (Dense) (None, 3) 33 [&#39;dense_4[0][0]&#39;] ================================================================================================== Total params: 608,243 Trainable params: 608,243 Non-trainable params: 0 __________________________________________________________________________________________________ Epoch 1/50 188/188 [==============================] - 24s 111ms/step - loss: 1.0669 - accuracy: 0.4240 
…
| 0.650392 | 0.458120 | 0.457724 | 4 | LSTM | 8 | 7 | . 164 rows × 12 columns . Train shape: (83399, 5, 7) Test shape: (10292, 5, 7) Train shape: (83399, 5, 7) Test shape: (10292, 5, 7) Train shape: (83399, 8) Test shape: (10292, 8) Model: &#34;Modelo_IFA&#34; __________________________________________________________________________________________________ Layer (type) Output Shape Param # Connected to ================================================================================================== input_1 (InputLayer) [(None, 5, 7)] 0 [] input_2 (InputLayer) [(None, 5, 7)] 0 [] lstm (LSTM) (None, 5, 100) 42800 [&#39;input_1[0][0]&#39;] lstm_1 (LSTM) (None, 5, 100) 42800 [&#39;input_2[0][0]&#39;] reshape (Reshape) (None, 500) 0 [&#39;lstm[0][0]&#39;] reshape_1 (Reshape) (None, 500) 0 [&#39;lstm_1[0][0]&#39;] input_3 (InputLayer) [(None, 8)] 0 [] concatenate (Concatenate) (None, 1008) 0 [&#39;reshape[0][0]&#39;, &#39;reshape_1[0][0]&#39;, &#39;input_3[0][0]&#39;] dense (Dense) (None, 500) 504500 [&#39;concatenate[0][0]&#39;] dropout (Dropout) (None, 500) 0 [&#39;dense[0][0]&#39;] dense_1 (Dense) (None, 200) 100200 [&#39;dropout[0][0]&#39;] dropout_1 (Dropout) (None, 200) 0 [&#39;dense_1[0][0]&#39;] dense_2 (Dense) (None, 80) 16080 [&#39;dropout_1[0][0]&#39;] dropout_2 (Dropout) (None, 80) 0 [&#39;dense_2[0][0]&#39;] dense_3 (Dense) (None, 20) 1620 [&#39;dropout_2[0][0]&#39;] dropout_3 (Dropout) (None, 20) 0 [&#39;dense_3[0][0]&#39;] dense_4 (Dense) (None, 10) 210 [&#39;dropout_3[0][0]&#39;] dense_5 (Dense) (None, 3) 33 [&#39;dense_4[0][0]&#39;] ================================================================================================== Total params: 708,243 Trainable params: 708,243 Non-trainable params: 0 __________________________________________________________________________________________________ Epoch 1/50 188/188 [==============================] - 27s 121ms/step - loss: 1.0732 - accuracy: 0.4215 
…
| 0.651544 | 0.459997 | 0.459480 | 5 | LSTM | 8 | 7 | . 165 rows × 12 columns . Train shape: (83399, 6, 7) Test shape: (10292, 6, 7) Train shape: (83399, 6, 7) Test shape: (10292, 6, 7) Train shape: (83399, 8) Test shape: (10292, 8) Model: &#34;Modelo_IFA&#34; __________________________________________________________________________________________________ Layer (type) Output Shape Param # Connected to ================================================================================================== input_1 (InputLayer) [(None, 6, 7)] 0 [] input_2 (InputLayer) [(None, 6, 7)] 0 [] lstm (LSTM) (None, 6, 100) 42800 [&#39;input_1[0][0]&#39;] lstm_1 (LSTM) (None, 6, 100) 42800 [&#39;input_2[0][0]&#39;] reshape (Reshape) (None, 600) 0 [&#39;lstm[0][0]&#39;] reshape_1 (Reshape) (None, 600) 0 [&#39;lstm_1[0][0]&#39;] input_3 (InputLayer) [(None, 8)] 0 [] concatenate (Concatenate) (None, 1208) 0 [&#39;reshape[0][0]&#39;, &#39;reshape_1[0][0]&#39;, &#39;input_3[0][0]&#39;] dense (Dense) (None, 500) 604500 [&#39;concatenate[0][0]&#39;] dropout (Dropout) (None, 500) 0 [&#39;dense[0][0]&#39;] dense_1 (Dense) (None, 200) 100200 [&#39;dropout[0][0]&#39;] dropout_1 (Dropout) (None, 200) 0 [&#39;dense_1[0][0]&#39;] dense_2 (Dense) (None, 80) 16080 [&#39;dropout_1[0][0]&#39;] dropout_2 (Dropout) (None, 80) 0 [&#39;dense_2[0][0]&#39;] dense_3 (Dense) (None, 20) 1620 [&#39;dropout_2[0][0]&#39;] dropout_3 (Dropout) (None, 20) 0 [&#39;dense_3[0][0]&#39;] dense_4 (Dense) (None, 10) 210 [&#39;dropout_3[0][0]&#39;] dense_5 (Dense) (None, 3) 33 [&#39;dense_4[0][0]&#39;] ================================================================================================== Total params: 808,243 Trainable params: 808,243 Non-trainable params: 0 __________________________________________________________________________________________________ Epoch 1/50 188/188 [==============================] - 31s 146ms/step - loss: 1.0636 - accuracy: 0.4287 
…
| 0.653797 | 0.459289 | 0.459105 | 6 | LSTM | 8 | 7 | . 166 rows × 12 columns . Train shape: (83399, 7, 7) Test shape: (10292, 7, 7) Train shape: (83399, 7, 7) Test shape: (10292, 7, 7) Train shape: (83399, 8) Test shape: (10292, 8) Model: &#34;Modelo_IFA&#34; __________________________________________________________________________________________________ Layer (type) Output Shape Param # Connected to ================================================================================================== input_1 (InputLayer) [(None, 7, 7)] 0 [] input_2 (InputLayer) [(None, 7, 7)] 0 [] lstm (LSTM) (None, 7, 100) 42800 [&#39;input_1[0][0]&#39;] lstm_1 (LSTM) (None, 7, 100) 42800 [&#39;input_2[0][0]&#39;] reshape (Reshape) (None, 700) 0 [&#39;lstm[0][0]&#39;] reshape_1 (Reshape) (None, 700) 0 [&#39;lstm_1[0][0]&#39;] input_3 (InputLayer) [(None, 8)] 0 [] concatenate (Concatenate) (None, 1408) 0 [&#39;reshape[0][0]&#39;, &#39;reshape_1[0][0]&#39;, &#39;input_3[0][0]&#39;] dense (Dense) (None, 500) 704500 [&#39;concatenate[0][0]&#39;] dropout (Dropout) (None, 500) 0 [&#39;dense[0][0]&#39;] dense_1 (Dense) (None, 200) 100200 [&#39;dropout[0][0]&#39;] dropout_1 (Dropout) (None, 200) 0 [&#39;dense_1[0][0]&#39;] dense_2 (Dense) (None, 80) 16080 [&#39;dropout_1[0][0]&#39;] dropout_2 (Dropout) (None, 80) 0 [&#39;dense_2[0][0]&#39;] dense_3 (Dense) (None, 20) 1620 [&#39;dropout_2[0][0]&#39;] dropout_3 (Dropout) (None, 20) 0 [&#39;dense_3[0][0]&#39;] dense_4 (Dense) (None, 10) 210 [&#39;dropout_3[0][0]&#39;] dense_5 (Dense) (None, 3) 33 [&#39;dense_4[0][0]&#39;] ================================================================================================== Total params: 908,243 Trainable params: 908,243 Non-trainable params: 0 __________________________________________________________________________________________________ Epoch 1/50 188/188 [==============================] - 35s 161ms/step - loss: 1.0637 - accuracy: 0.4211 
…
| 0.662060 | 0.473321 | 0.471299 | 7 | LSTM | 8 | 7 | . 167 rows × 12 columns . Train shape: (83399, 8, 7) Test shape: (10292, 8, 7) Train shape: (83399, 8, 7) Test shape: (10292, 8, 7) Train shape: (83399, 8) Test shape: (10292, 8) Model: &#34;Modelo_IFA&#34; __________________________________________________________________________________________________ Layer (type) Output Shape Param # Connected to ================================================================================================== input_1 (InputLayer) [(None, 8, 7)] 0 [] input_2 (InputLayer) [(None, 8, 7)] 0 [] lstm (LSTM) (None, 8, 100) 42800 [&#39;input_1[0][0]&#39;] lstm_1 (LSTM) (None, 8, 100) 42800 [&#39;input_2[0][0]&#39;] reshape (Reshape) (None, 800) 0 [&#39;lstm[0][0]&#39;] reshape_1 (Reshape) (None, 800) 0 [&#39;lstm_1[0][0]&#39;] input_3 (InputLayer) [(None, 8)] 0 [] concatenate (Concatenate) (None, 1608) 0 [&#39;reshape[0][0]&#39;, &#39;reshape_1[0][0]&#39;, &#39;input_3[0][0]&#39;] dense (Dense) (None, 500) 804500 [&#39;concatenate[0][0]&#39;] dropout (Dropout) (None, 500) 0 [&#39;dense[0][0]&#39;] dense_1 (Dense) (None, 200) 100200 [&#39;dropout[0][0]&#39;] dropout_1 (Dropout) (None, 200) 0 [&#39;dense_1[0][0]&#39;] dense_2 (Dense) (None, 80) 16080 [&#39;dropout_1[0][0]&#39;] dropout_2 (Dropout) (None, 80) 0 [&#39;dense_2[0][0]&#39;] dense_3 (Dense) (None, 20) 1620 [&#39;dropout_2[0][0]&#39;] dropout_3 (Dropout) (None, 20) 0 [&#39;dense_3[0][0]&#39;] dense_4 (Dense) (None, 10) 210 [&#39;dropout_3[0][0]&#39;] dense_5 (Dense) (None, 3) 33 [&#39;dense_4[0][0]&#39;] ================================================================================================== Total params: 1,008,243 Trainable params: 1,008,243 Non-trainable params: 0 __________________________________________________________________________________________________ Epoch 1/50 188/188 [==============================] - 41s 184ms/step - loss: 1.0650 - accuracy: 0.4
…
| 0.652929 | 0.454237 | 0.454276 | 8 | LSTM | 8 | 7 | . 168 rows × 12 columns . Train shape: (83399, 9, 7) Test shape: (10292, 9, 7) Train shape: (83399, 9, 7) Test shape: (10292, 9, 7) Train shape: (83399, 8) Test shape: (10292, 8) Model: &#34;Modelo_IFA&#34; __________________________________________________________________________________________________ Layer (type) Output Shape Param # Connected to ================================================================================================== input_1 (InputLayer) [(None, 9, 7)] 0 [] input_2 (InputLayer) [(None, 9, 7)] 0 [] lstm (LSTM) (None, 9, 100) 42800 [&#39;input_1[0][0]&#39;] lstm_1 (LSTM) (None, 9, 100) 42800 [&#39;input_2[0][0]&#39;] reshape (Reshape) (None, 900) 0 [&#39;lstm[0][0]&#39;] reshape_1 (Reshape) (None, 900) 0 [&#39;lstm_1[0][0]&#39;] input_3 (InputLayer) [(None, 8)] 0 [] concatenate (Concatenate) (None, 1808) 0 [&#39;reshape[0][0]&#39;, &#39;reshape_1[0][0]&#39;, &#39;input_3[0][0]&#39;] dense (Dense) (None, 500) 904500 [&#39;concatenate[0][0]&#39;] dropout (Dropout) (None, 500) 0 [&#39;dense[0][0]&#39;] dense_1 (Dense) (None, 200) 100200 [&#39;dropout[0][0]&#39;] dropout_1 (Dropout) (None, 200) 0 [&#39;dense_1[0][0]&#39;] dense_2 (Dense) (None, 80) 16080 [&#39;dropout_1[0][0]&#39;] dropout_2 (Dropout) (None, 80) 0 [&#39;dense_2[0][0]&#39;] dense_3 (Dense) (None, 20) 1620 [&#39;dropout_2[0][0]&#39;] dropout_3 (Dropout) (None, 20) 0 [&#39;dense_3[0][0]&#39;] dense_4 (Dense) (None, 10) 210 [&#39;dropout_3[0][0]&#39;] dense_5 (Dense) (None, 3) 33 [&#39;dense_4[0][0]&#39;] ================================================================================================== Total params: 1,108,243 Trainable params: 1,108,243 Non-trainable params: 0 __________________________________________________________________________________________________ Epoch 1/50 188/188 [==============================] - 44s 209ms/step - loss: 1.0708 - accuracy: 0.4
…
5920 | 0.454019 | 0.454023 | 9 | LSTM | 8 | 7 | . 169 rows × 12 columns . Train shape: (83399, 10, 7) Test shape: (10292, 10, 7) Train shape: (83399, 10, 7) Test shape: (10292, 10, 7) Train shape: (83399, 8) Test shape: (10292, 8) Model: &#34;Modelo_IFA&#34; __________________________________________________________________________________________________ Layer (type) Output Shape Param # Connected to ================================================================================================== input_1 (InputLayer) [(None, 10, 7)] 0 [] input_2 (InputLayer) [(None, 10, 7)] 0 [] lstm (LSTM) (None, 10, 100) 42800 [&#39;input_1[0][0]&#39;] lstm_1 (LSTM) (None, 10, 100) 42800 [&#39;input_2[0][0]&#39;] reshape (Reshape) (None, 1000) 0 [&#39;lstm[0][0]&#39;] reshape_1 (Reshape) (None, 1000) 0 [&#39;lstm_1[0][0]&#39;] input_3 (InputLayer) [(None, 8)] 0 [] concatenate (Concatenate) (None, 2008) 0 [&#39;reshape[0][0]&#39;, &#39;reshape_1[0][0]&#39;, &#39;input_3[0][0]&#39;] dense (Dense) (None, 500) 1004500 [&#39;concatenate[0][0]&#39;] dropout (Dropout) (None, 500) 0 [&#39;dense[0][0]&#39;] dense_1 (Dense) (None, 200) 100200 [&#39;dropout[0][0]&#39;] dropout_1 (Dropout) (None, 200) 0 [&#39;dense_1[0][0]&#39;] dense_2 (Dense) (None, 80) 16080 [&#39;dropout_1[0][0]&#39;] dropout_2 (Dropout) (None, 80) 0 [&#39;dense_2[0][0]&#39;] dense_3 (Dense) (None, 20) 1620 [&#39;dropout_2[0][0]&#39;] dropout_3 (Dropout) (None, 20) 0 [&#39;dense_3[0][0]&#39;] dense_4 (Dense) (None, 10) 210 [&#39;dropout_3[0][0]&#39;] dense_5 (Dense) (None, 3) 33 [&#39;dense_4[0][0]&#39;] ================================================================================================== Total params: 1,208,243 Trainable params: 1,208,243 Non-trainable params: 0 __________________________________________________________________________________________________ Epoch 1/50 188/188 [==============================] - 48s 226ms/step - loss: 1.0618 - accuracy: 0.4
…
 0.462702 | 0.461737 | 10 | LSTM | 8 | 7 | . 170 rows × 12 columns . Train shape: (83399, 1, 7) Test shape: (10292, 1, 7) Train shape: (83399, 1, 7) Test shape: (10292, 1, 7) Train shape: (83399, 8) Test shape: (10292, 8) Model: &#34;Modelo_IFA&#34; __________________________________________________________________________________________________ Layer (type) Output Shape Param # Connected to ================================================================================================== input_1 (InputLayer) [(None, 1, 7)] 0 [] input_2 (InputLayer) [(None, 1, 7)] 0 [] simple_rnn (SimpleRNN) (None, 1, 100) 10700 [&#39;input_1[0][0]&#39;] simple_rnn_1 (SimpleRNN) (None, 1, 100) 10700 [&#39;input_2[0][0]&#39;] reshape (Reshape) (None, 100) 0 [&#39;simple_rnn[0][0]&#39;] reshape_1 (Reshape) (None, 100) 0 [&#39;simple_rnn_1[0][0]&#39;] input_3 (InputLayer) [(None, 8)] 0 [] concatenate (Concatenate) (None, 208) 0 [&#39;reshape[0][0]&#39;, &#39;reshape_1[0][0]&#39;, &#39;input_3[0][0]&#39;] dense (Dense) (None, 500) 104500 [&#39;concatenate[0][0]&#39;] dropout (Dropout) (None, 500) 0 [&#39;dense[0][0]&#39;] dense_1 (Dense) (None, 200) 100200 [&#39;dropout[0][0]&#39;] dropout_1 (Dropout) (None, 200) 0 [&#39;dense_1[0][0]&#39;] dense_2 (Dense) (None, 80) 16080 [&#39;dropout_1[0][0]&#39;] dropout_2 (Dropout) (None, 80) 0 [&#39;dense_2[0][0]&#39;] dense_3 (Dense) (None, 20) 1620 [&#39;dropout_2[0][0]&#39;] dropout_3 (Dropout) (None, 20) 0 [&#39;dense_3[0][0]&#39;] dense_4 (Dense) (None, 10) 210 [&#39;dropout_3[0][0]&#39;] dense_5 (Dense) (None, 3) 33 [&#39;dense_4[0][0]&#39;] ================================================================================================== Total params: 244,043 Trainable params: 244,043 Non-trainable params: 0 __________________________________________________________________________________________________ Epoch 1/50 188/188 [==============================] - 10s 38ms/step - loss: 1.0742 - accuracy: 0.4020 -
…
0.437986 | 0.438061 | 1 | Simple | 8 | 7 | . 171 rows × 12 columns . Train shape: (83399, 2, 7) Test shape: (10292, 2, 7) Train shape: (83399, 2, 7) Test shape: (10292, 2, 7) Train shape: (83399, 8) Test shape: (10292, 8) Model: &#34;Modelo_IFA&#34; __________________________________________________________________________________________________ Layer (type) Output Shape Param # Connected to ================================================================================================== input_1 (InputLayer) [(None, 2, 7)] 0 [] input_2 (InputLayer) [(None, 2, 7)] 0 [] simple_rnn (SimpleRNN) (None, 2, 100) 10700 [&#39;input_1[0][0]&#39;] simple_rnn_1 (SimpleRNN) (None, 2, 100) 10700 [&#39;input_2[0][0]&#39;] reshape (Reshape) (None, 200) 0 [&#39;simple_rnn[0][0]&#39;] reshape_1 (Reshape) (None, 200) 0 [&#39;simple_rnn_1[0][0]&#39;] input_3 (InputLayer) [(None, 8)] 0 [] concatenate (Concatenate) (None, 408) 0 [&#39;reshape[0][0]&#39;, &#39;reshape_1[0][0]&#39;, &#39;input_3[0][0]&#39;] dense (Dense) (None, 500) 204500 [&#39;concatenate[0][0]&#39;] dropout (Dropout) (None, 500) 0 [&#39;dense[0][0]&#39;] dense_1 (Dense) (None, 200) 100200 [&#39;dropout[0][0]&#39;] dropout_1 (Dropout) (None, 200) 0 [&#39;dense_1[0][0]&#39;] dense_2 (Dense) (None, 80) 16080 [&#39;dropout_1[0][0]&#39;] dropout_2 (Dropout) (None, 80) 0 [&#39;dense_2[0][0]&#39;] dense_3 (Dense) (None, 20) 1620 [&#39;dropout_2[0][0]&#39;] dropout_3 (Dropout) (None, 20) 0 [&#39;dense_3[0][0]&#39;] dense_4 (Dense) (None, 10) 210 [&#39;dropout_3[0][0]&#39;] dense_5 (Dense) (None, 3) 33 [&#39;dense_4[0][0]&#39;] ================================================================================================== Total params: 344,043 Trainable params: 344,043 Non-trainable params: 0 __________________________________________________________________________________________________ Epoch 1/50 188/188 [==============================] - 12s 48ms/step - loss: 1.0876 - accuracy: 0.3592 -
…
0.457222 | 0.456181 | 2 | Simple | 8 | 7 | . 172 rows × 12 columns . Train shape: (83399, 3, 7) Test shape: (10292, 3, 7) Train shape: (83399, 3, 7) Test shape: (10292, 3, 7) Train shape: (83399, 8) Test shape: (10292, 8) Model: &#34;Modelo_IFA&#34; __________________________________________________________________________________________________ Layer (type) Output Shape Param # Connected to ================================================================================================== input_1 (InputLayer) [(None, 3, 7)] 0 [] input_2 (InputLayer) [(None, 3, 7)] 0 [] simple_rnn (SimpleRNN) (None, 3, 100) 10700 [&#39;input_1[0][0]&#39;] simple_rnn_1 (SimpleRNN) (None, 3, 100) 10700 [&#39;input_2[0][0]&#39;] reshape (Reshape) (None, 300) 0 [&#39;simple_rnn[0][0]&#39;] reshape_1 (Reshape) (None, 300) 0 [&#39;simple_rnn_1[0][0]&#39;] input_3 (InputLayer) [(None, 8)] 0 [] concatenate (Concatenate) (None, 608) 0 [&#39;reshape[0][0]&#39;, &#39;reshape_1[0][0]&#39;, &#39;input_3[0][0]&#39;] dense (Dense) (None, 500) 304500 [&#39;concatenate[0][0]&#39;] dropout (Dropout) (None, 500) 0 [&#39;dense[0][0]&#39;] dense_1 (Dense) (None, 200) 100200 [&#39;dropout[0][0]&#39;] dropout_1 (Dropout) (None, 200) 0 [&#39;dense_1[0][0]&#39;] dense_2 (Dense) (None, 80) 16080 [&#39;dropout_1[0][0]&#39;] dropout_2 (Dropout) (None, 80) 0 [&#39;dense_2[0][0]&#39;] dense_3 (Dense) (None, 20) 1620 [&#39;dropout_2[0][0]&#39;] dropout_3 (Dropout) (None, 20) 0 [&#39;dense_3[0][0]&#39;] dense_4 (Dense) (None, 10) 210 [&#39;dropout_3[0][0]&#39;] dense_5 (Dense) (None, 3) 33 [&#39;dense_4[0][0]&#39;] ================================================================================================== Total params: 444,043 Trainable params: 444,043 Non-trainable params: 0 __________________________________________________________________________________________________ Epoch 1/50 188/188 [==============================] - 15s 60ms/step - loss: 1.0857 - accuracy: 0.3679 -
…
0.460382 | 0.458165 | 3 | Simple | 8 | 7 | . 173 rows × 12 columns . Train shape: (83399, 4, 7) Test shape: (10292, 4, 7) Train shape: (83399, 4, 7) Test shape: (10292, 4, 7) Train shape: (83399, 8) Test shape: (10292, 8) Model: &#34;Modelo_IFA&#34; __________________________________________________________________________________________________ Layer (type) Output Shape Param # Connected to ================================================================================================== input_1 (InputLayer) [(None, 4, 7)] 0 [] input_2 (InputLayer) [(None, 4, 7)] 0 [] simple_rnn (SimpleRNN) (None, 4, 100) 10700 [&#39;input_1[0][0]&#39;] simple_rnn_1 (SimpleRNN) (None, 4, 100) 10700 [&#39;input_2[0][0]&#39;] reshape (Reshape) (None, 400) 0 [&#39;simple_rnn[0][0]&#39;] reshape_1 (Reshape) (None, 400) 0 [&#39;simple_rnn_1[0][0]&#39;] input_3 (InputLayer) [(None, 8)] 0 [] concatenate (Concatenate) (None, 808) 0 [&#39;reshape[0][0]&#39;, &#39;reshape_1[0][0]&#39;, &#39;input_3[0][0]&#39;] dense (Dense) (None, 500) 404500 [&#39;concatenate[0][0]&#39;] dropout (Dropout) (None, 500) 0 [&#39;dense[0][0]&#39;] dense_1 (Dense) (None, 200) 100200 [&#39;dropout[0][0]&#39;] dropout_1 (Dropout) (None, 200) 0 [&#39;dense_1[0][0]&#39;] dense_2 (Dense) (None, 80) 16080 [&#39;dropout_1[0][0]&#39;] dropout_2 (Dropout) (None, 80) 0 [&#39;dense_2[0][0]&#39;] dense_3 (Dense) (None, 20) 1620 [&#39;dropout_2[0][0]&#39;] dropout_3 (Dropout) (None, 20) 0 [&#39;dense_3[0][0]&#39;] dense_4 (Dense) (None, 10) 210 [&#39;dropout_3[0][0]&#39;] dense_5 (Dense) (None, 3) 33 [&#39;dense_4[0][0]&#39;] ================================================================================================== Total params: 544,043 Trainable params: 544,043 Non-trainable params: 0 __________________________________________________________________________________________________ Epoch 1/50 188/188 [==============================] - 17s 70ms/step - loss: 1.0831 - accuracy: 0.3963 -
…
0.455784 | 0.455303 | 4 | Simple | 8 | 7 | . 174 rows × 12 columns . Train shape: (83399, 5, 7) Test shape: (10292, 5, 7) Train shape: (83399, 5, 7) Test shape: (10292, 5, 7) Train shape: (83399, 8) Test shape: (10292, 8) Model: &#34;Modelo_IFA&#34; __________________________________________________________________________________________________ Layer (type) Output Shape Param # Connected to ================================================================================================== input_1 (InputLayer) [(None, 5, 7)] 0 [] input_2 (InputLayer) [(None, 5, 7)] 0 [] simple_rnn (SimpleRNN) (None, 5, 100) 10700 [&#39;input_1[0][0]&#39;] simple_rnn_1 (SimpleRNN) (None, 5, 100) 10700 [&#39;input_2[0][0]&#39;] reshape (Reshape) (None, 500) 0 [&#39;simple_rnn[0][0]&#39;] reshape_1 (Reshape) (None, 500) 0 [&#39;simple_rnn_1[0][0]&#39;] input_3 (InputLayer) [(None, 8)] 0 [] concatenate (Concatenate) (None, 1008) 0 [&#39;reshape[0][0]&#39;, &#39;reshape_1[0][0]&#39;, &#39;input_3[0][0]&#39;] dense (Dense) (None, 500) 504500 [&#39;concatenate[0][0]&#39;] dropout (Dropout) (None, 500) 0 [&#39;dense[0][0]&#39;] dense_1 (Dense) (None, 200) 100200 [&#39;dropout[0][0]&#39;] dropout_1 (Dropout) (None, 200) 0 [&#39;dense_1[0][0]&#39;] dense_2 (Dense) (None, 80) 16080 [&#39;dropout_1[0][0]&#39;] dropout_2 (Dropout) (None, 80) 0 [&#39;dense_2[0][0]&#39;] dense_3 (Dense) (None, 20) 1620 [&#39;dropout_2[0][0]&#39;] dropout_3 (Dropout) (None, 20) 0 [&#39;dense_3[0][0]&#39;] dense_4 (Dense) (None, 10) 210 [&#39;dropout_3[0][0]&#39;] dense_5 (Dense) (None, 3) 33 [&#39;dense_4[0][0]&#39;] ================================================================================================== Total params: 644,043 Trainable params: 644,043 Non-trainable params: 0 __________________________________________________________________________________________________ Epoch 1/50 188/188 [==============================] - 16s 70ms/step - loss: 1.0678 - accuracy: 0.4105 -
…
0.465522 | 0.464089 | 5 | Simple | 8 | 7 | . 175 rows × 12 columns . Train shape: (83399, 6, 7) Test shape: (10292, 6, 7) Train shape: (83399, 6, 7) Test shape: (10292, 6, 7) Train shape: (83399, 8) Test shape: (10292, 8) Model: &#34;Modelo_IFA&#34; __________________________________________________________________________________________________ Layer (type) Output Shape Param # Connected to ================================================================================================== input_1 (InputLayer) [(None, 6, 7)] 0 [] input_2 (InputLayer) [(None, 6, 7)] 0 [] simple_rnn (SimpleRNN) (None, 6, 100) 10700 [&#39;input_1[0][0]&#39;] simple_rnn_1 (SimpleRNN) (None, 6, 100) 10700 [&#39;input_2[0][0]&#39;] reshape (Reshape) (None, 600) 0 [&#39;simple_rnn[0][0]&#39;] reshape_1 (Reshape) (None, 600) 0 [&#39;simple_rnn_1[0][0]&#39;] input_3 (InputLayer) [(None, 8)] 0 [] concatenate (Concatenate) (None, 1208) 0 [&#39;reshape[0][0]&#39;, &#39;reshape_1[0][0]&#39;, &#39;input_3[0][0]&#39;] dense (Dense) (None, 500) 604500 [&#39;concatenate[0][0]&#39;] dropout (Dropout) (None, 500) 0 [&#39;dense[0][0]&#39;] dense_1 (Dense) (None, 200) 100200 [&#39;dropout[0][0]&#39;] dropout_1 (Dropout) (None, 200) 0 [&#39;dense_1[0][0]&#39;] dense_2 (Dense) (None, 80) 16080 [&#39;dropout_1[0][0]&#39;] dropout_2 (Dropout) (None, 80) 0 [&#39;dense_2[0][0]&#39;] dense_3 (Dense) (None, 20) 1620 [&#39;dropout_2[0][0]&#39;] dropout_3 (Dropout) (None, 20) 0 [&#39;dense_3[0][0]&#39;] dense_4 (Dense) (None, 10) 210 [&#39;dropout_3[0][0]&#39;] dense_5 (Dense) (None, 3) 33 [&#39;dense_4[0][0]&#39;] ================================================================================================== Total params: 744,043 Trainable params: 744,043 Non-trainable params: 0 __________________________________________________________________________________________________ Epoch 1/50 188/188 [==============================] - 19s 83ms/step - loss: 1.0703 - accuracy: 0.4115 -
…
0.481344 | 0.478470 | 6 | Simple | 8 | 7 | . 176 rows × 12 columns . Train shape: (83399, 7, 7) Test shape: (10292, 7, 7) Train shape: (83399, 7, 7) Test shape: (10292, 7, 7) Train shape: (83399, 8) Test shape: (10292, 8) Model: &#34;Modelo_IFA&#34; __________________________________________________________________________________________________ Layer (type) Output Shape Param # Connected to ================================================================================================== input_1 (InputLayer) [(None, 7, 7)] 0 [] input_2 (InputLayer) [(None, 7, 7)] 0 [] simple_rnn (SimpleRNN) (None, 7, 100) 10700 [&#39;input_1[0][0]&#39;] simple_rnn_1 (SimpleRNN) (None, 7, 100) 10700 [&#39;input_2[0][0]&#39;] reshape (Reshape) (None, 700) 0 [&#39;simple_rnn[0][0]&#39;] reshape_1 (Reshape) (None, 700) 0 [&#39;simple_rnn_1[0][0]&#39;] input_3 (InputLayer) [(None, 8)] 0 [] concatenate (Concatenate) (None, 1408) 0 [&#39;reshape[0][0]&#39;, &#39;reshape_1[0][0]&#39;, &#39;input_3[0][0]&#39;] dense (Dense) (None, 500) 704500 [&#39;concatenate[0][0]&#39;] dropout (Dropout) (None, 500) 0 [&#39;dense[0][0]&#39;] dense_1 (Dense) (None, 200) 100200 [&#39;dropout[0][0]&#39;] dropout_1 (Dropout) (None, 200) 0 [&#39;dense_1[0][0]&#39;] dense_2 (Dense) (None, 80) 16080 [&#39;dropout_1[0][0]&#39;] dropout_2 (Dropout) (None, 80) 0 [&#39;dense_2[0][0]&#39;] dense_3 (Dense) (None, 20) 1620 [&#39;dropout_2[0][0]&#39;] dropout_3 (Dropout) (None, 20) 0 [&#39;dense_3[0][0]&#39;] dense_4 (Dense) (None, 10) 210 [&#39;dropout_3[0][0]&#39;] dense_5 (Dense) (None, 3) 33 [&#39;dense_4[0][0]&#39;] ================================================================================================== Total params: 844,043 Trainable params: 844,043 Non-trainable params: 0 __________________________________________________________________________________________________ Epoch 1/50 188/188 [==============================] - 23s 97ms/step - loss: 1.0771 - accuracy: 0.3976 -
…
0.470896 | 0.468189 | 7 | Simple | 8 | 7 | . 177 rows × 12 columns . Train shape: (83399, 8, 7) Test shape: (10292, 8, 7) Train shape: (83399, 8, 7) Test shape: (10292, 8, 7) Train shape: (83399, 8) Test shape: (10292, 8) Model: &#34;Modelo_IFA&#34; __________________________________________________________________________________________________ Layer (type) Output Shape Param # Connected to ================================================================================================== input_1 (InputLayer) [(None, 8, 7)] 0 [] input_2 (InputLayer) [(None, 8, 7)] 0 [] simple_rnn (SimpleRNN) (None, 8, 100) 10700 [&#39;input_1[0][0]&#39;] simple_rnn_1 (SimpleRNN) (None, 8, 100) 10700 [&#39;input_2[0][0]&#39;] reshape (Reshape) (None, 800) 0 [&#39;simple_rnn[0][0]&#39;] reshape_1 (Reshape) (None, 800) 0 [&#39;simple_rnn_1[0][0]&#39;] input_3 (InputLayer) [(None, 8)] 0 [] concatenate (Concatenate) (None, 1608) 0 [&#39;reshape[0][0]&#39;, &#39;reshape_1[0][0]&#39;, &#39;input_3[0][0]&#39;] dense (Dense) (None, 500) 804500 [&#39;concatenate[0][0]&#39;] dropout (Dropout) (None, 500) 0 [&#39;dense[0][0]&#39;] dense_1 (Dense) (None, 200) 100200 [&#39;dropout[0][0]&#39;] dropout_1 (Dropout) (None, 200) 0 [&#39;dense_1[0][0]&#39;] dense_2 (Dense) (None, 80) 16080 [&#39;dropout_1[0][0]&#39;] dropout_2 (Dropout) (None, 80) 0 [&#39;dense_2[0][0]&#39;] dense_3 (Dense) (None, 20) 1620 [&#39;dropout_2[0][0]&#39;] dropout_3 (Dropout) (None, 20) 0 [&#39;dense_3[0][0]&#39;] dense_4 (Dense) (None, 10) 210 [&#39;dropout_3[0][0]&#39;] dense_5 (Dense) (None, 3) 33 [&#39;dense_4[0][0]&#39;] ================================================================================================== Total params: 944,043 Trainable params: 944,043 Non-trainable params: 0 __________________________________________________________________________________________________ Epoch 1/50 188/188 [==============================] - 22s 100ms/step - loss: 1.0711 - accuracy: 0.4033 
…
0.484347 | 0.480575 | 8 | Simple | 8 | 7 | . 178 rows × 12 columns . Train shape: (83399, 9, 7) Test shape: (10292, 9, 7) Train shape: (83399, 9, 7) Test shape: (10292, 9, 7) Train shape: (83399, 8) Test shape: (10292, 8) Model: &#34;Modelo_IFA&#34; __________________________________________________________________________________________________ Layer (type) Output Shape Param # Connected to ================================================================================================== input_1 (InputLayer) [(None, 9, 7)] 0 [] input_2 (InputLayer) [(None, 9, 7)] 0 [] simple_rnn (SimpleRNN) (None, 9, 100) 10700 [&#39;input_1[0][0]&#39;] simple_rnn_1 (SimpleRNN) (None, 9, 100) 10700 [&#39;input_2[0][0]&#39;] reshape (Reshape) (None, 900) 0 [&#39;simple_rnn[0][0]&#39;] reshape_1 (Reshape) (None, 900) 0 [&#39;simple_rnn_1[0][0]&#39;] input_3 (InputLayer) [(None, 8)] 0 [] concatenate (Concatenate) (None, 1808) 0 [&#39;reshape[0][0]&#39;, &#39;reshape_1[0][0]&#39;, &#39;input_3[0][0]&#39;] dense (Dense) (None, 500) 904500 [&#39;concatenate[0][0]&#39;] dropout (Dropout) (None, 500) 0 [&#39;dense[0][0]&#39;] dense_1 (Dense) (None, 200) 100200 [&#39;dropout[0][0]&#39;] dropout_1 (Dropout) (None, 200) 0 [&#39;dense_1[0][0]&#39;] dense_2 (Dense) (None, 80) 16080 [&#39;dropout_1[0][0]&#39;] dropout_2 (Dropout) (None, 80) 0 [&#39;dense_2[0][0]&#39;] dense_3 (Dense) (None, 20) 1620 [&#39;dropout_2[0][0]&#39;] dropout_3 (Dropout) (None, 20) 0 [&#39;dense_3[0][0]&#39;] dense_4 (Dense) (None, 10) 210 [&#39;dropout_3[0][0]&#39;] dense_5 (Dense) (None, 3) 33 [&#39;dense_4[0][0]&#39;] ================================================================================================== Total params: 1,044,043 Trainable params: 1,044,043 Non-trainable params: 0 __________________________________________________________________________________________________ Epoch 1/50 188/188 [==============================] - 24s 112ms/step - loss: 1.0848 - accuracy: 0.3
…
97 | 0.486663 | 9 | Simple | 8 | 7 | . 179 rows × 12 columns . Train shape: (83399, 10, 7) Test shape: (10292, 10, 7) Train shape: (83399, 10, 7) Test shape: (10292, 10, 7) Train shape: (83399, 8) Test shape: (10292, 8) Model: &#34;Modelo_IFA&#34; __________________________________________________________________________________________________ Layer (type) Output Shape Param # Connected to ================================================================================================== input_1 (InputLayer) [(None, 10, 7)] 0 [] input_2 (InputLayer) [(None, 10, 7)] 0 [] simple_rnn (SimpleRNN) (None, 10, 100) 10700 [&#39;input_1[0][0]&#39;] simple_rnn_1 (SimpleRNN) (None, 10, 100) 10700 [&#39;input_2[0][0]&#39;] reshape (Reshape) (None, 1000) 0 [&#39;simple_rnn[0][0]&#39;] reshape_1 (Reshape) (None, 1000) 0 [&#39;simple_rnn_1[0][0]&#39;] input_3 (InputLayer) [(None, 8)] 0 [] concatenate (Concatenate) (None, 2008) 0 [&#39;reshape[0][0]&#39;, &#39;reshape_1[0][0]&#39;, &#39;input_3[0][0]&#39;] dense (Dense) (None, 500) 1004500 [&#39;concatenate[0][0]&#39;] dropout (Dropout) (None, 500) 0 [&#39;dense[0][0]&#39;] dense_1 (Dense) (None, 200) 100200 [&#39;dropout[0][0]&#39;] dropout_1 (Dropout) (None, 200) 0 [&#39;dense_1[0][0]&#39;] dense_2 (Dense) (None, 80) 16080 [&#39;dropout_1[0][0]&#39;] dropout_2 (Dropout) (None, 80) 0 [&#39;dense_2[0][0]&#39;] dense_3 (Dense) (None, 20) 1620 [&#39;dropout_2[0][0]&#39;] dropout_3 (Dropout) (None, 20) 0 [&#39;dense_3[0][0]&#39;] dense_4 (Dense) (None, 10) 210 [&#39;dropout_3[0][0]&#39;] dense_5 (Dense) (None, 3) 33 [&#39;dense_4[0][0]&#39;] ================================================================================================== Total params: 1,144,043 Trainable params: 1,144,043 Non-trainable params: 0 __________________________________________________________________________________________________ Epoch 1/50 188/188 [==============================] - 25s 118ms/step - loss: 1.0724 - accuracy: 0.4
…
